{"format": "graph-model", "generatedBy": "2.19.0", "convertedBy": "TensorFlow.js Converter v4.22.0", "signature": {"inputs": {"keras_tensor_6226": {"name": "keras_tensor_6226:0", "dtype": "DT_FLOAT", "tensorShape": {"dim": [{"size": "-1"}, {"size": "300"}, {"size": "300"}, {"size": "3"}]}}}, "outputs": {"output_0": {"name": "Identity:0", "dtype": "DT_FLOAT", "tensorShape": {"dim": [{"size": "-1"}, {"size": "7"}]}}}}, "modelTopology": {"node": [{"name": "StatefulPartitionedCall/functional_113_1/efficientnetb2_1/block7b_project_bn_1/batchnorm/sub", "op": "Const", "attr": {"value": {"tensor": {"dtype": "DT_FLOAT", "tensorShape": {"dim": [{"size": "1"}, {"size": "1"}, {"size": "1"}, {"size": "352"}]}}}, "dtype": {"type": "DT_FLOAT"}}}, {"name": "StatefulPartitionedCall/functional_113_1/efficientnetb2_1/block7b_expand_conv_1/convolution/merged_input", "op": "Const", "attr": {"value": {"tensor": {"dtype": "DT_FLOAT", "tensorShape": {"dim": [{"size": "1"}, {"size": "1"}, {"size": "352"}, {"size": "2112"}]}}}, "dtype": {"type": "DT_FLOAT"}}}, {"name": "StatefulPartitionedCall/functional_113_1/efficientnetb2_1/block7b_expand_bn_1/batchnorm/sub", "op": "Const", "attr": {"value": {"tensor": {"dtype": "DT_FLOAT", "tensorShape": {"dim": [{"size": "1"}, {"size": "1"}, {"size": "1"}, {"size": "2112"}]}}}, "dtype": {"type": "DT_FLOAT"}}}, {"name": "StatefulPartitionedCall/functional_113_1/efficientnetb2_1/block7b_dwconv_1/depthwise/ReadVariableOp", "op": "Const", "attr": {"value": {"tensor": {"dtype": "DT_FLOAT", "tensorShape": {"dim": [{"size": "3"}, {"size": "3"}, {"size": "2112"}, {"size": "1"}]}}}, "dtype": {"type": "DT_FLOAT"}}}, {"name": "StatefulPartitionedCall/functional_113_1/efficientnetb2_1/block7b_bn_1/batchnorm/mul", "op": "Const", "attr": {"value": {"tensor": {"dtype": "DT_FLOAT", "tensorShape": {"dim": [{"size": "1"}, {"size": "1"}, {"size": "1"}, {"size": "2112"}]}}}, "dtype": {"type": "DT_FLOAT"}}}, {"name": "StatefulPartitionedCall/functional_113_1/efficientnetb2_1/block7b_bn_1/batchnorm/sub", "op": "Const", "attr": {"value": {"tensor": {"dtype": "DT_FLOAT", "tensorShape": {"dim": [{"size": "1"}, {"size": "1"}, {"size": "1"}, {"size": "2112"}]}}}, "dtype": {"type": "DT_FLOAT"}}}, {"name": "StatefulPartitionedCall/functional_113_1/efficientnetb2_1/block7b_se_squeeze_1/Mean/reduction_indices", "op": "Const", "attr": {"value": {"tensor": {"dtype": "DT_INT32", "tensorShape": {"dim": [{"size": "2"}]}}}, "dtype": {"type": "DT_INT32"}}}, {"name": "StatefulPartitionedCall/functional_113_1/efficientnetb2_1/block7b_se_reshape_1/strided_slice/stack", "op": "Const", "attr": {"value": {"tensor": {"dtype": "DT_INT32", "tensorShape": {"dim": [{"size": "1"}]}}}, "dtype": {"type": "DT_INT32"}}}, {"name": "StatefulPartitionedCall/functional_113_1/efficientnetb2_1/block7b_se_reshape_1/strided_slice/stack_1", "op": "Const", "attr": {"value": {"tensor": {"dtype": "DT_INT32", "tensorShape": {"dim": [{"size": "1"}]}}}, "dtype": {"type": "DT_INT32"}}}, {"name": "StatefulPartitionedCall/functional_113_1/efficientnetb2_1/block7b_se_reshape_1/strided_slice/stack_2", "op": "Const", "attr": {"value": {"tensor": {"dtype": "DT_INT32", "tensorShape": {"dim": [{"size": "1"}]}}}, "dtype": {"type": "DT_INT32"}}}, {"name": "StatefulPartitionedCall/functional_113_1/efficientnetb2_1/block7b_se_reshape_1/Reshape/shape/1", "op": "Const", "attr": {"value": {"tensor": {"dtype": "DT_INT32", "tensorShape": {}}}, "dtype": {"type": "DT_INT32"}}}, {"name": "StatefulPartitionedCall/functional_113_1/efficientnetb2_1/block7b_se_reshape_1/Reshape/shape/2", "op": "Const", "attr": {"value": {"tensor": {"dtype": "DT_INT32", "tensorShape": {}}}, "dtype": {"type": "DT_INT32"}}}, {"name": "StatefulPartitionedCall/functional_113_1/efficientnetb2_1/block7b_se_reshape_1/Reshape/shape/3", "op": "Const", "attr": {"value": {"tensor": {"dtype": "DT_INT32", "tensorShape": {}}}, "dtype": {"type": "DT_INT32"}}}, {"name": "StatefulPartitionedCall/functional_113_1/efficientnetb2_1/block7b_se_reduce_1/convolution/ReadVariableOp", "op": "Const", "attr": {"value": {"tensor": {"dtype": "DT_FLOAT", "tensorShape": {"dim": [{"size": "1"}, {"size": "1"}, {"size": "2112"}, {"size": "88"}]}}}, "dtype": {"type": "DT_FLOAT"}}}, {"name": "StatefulPartitionedCall/functional_113_1/efficientnetb2_1/block7b_se_reduce_1/Squeeze", "op": "Const", "attr": {"value": {"tensor": {"dtype": "DT_FLOAT", "tensorShape": {"dim": [{"size": "88"}]}}}, "dtype": {"type": "DT_FLOAT"}}}, {"name": "StatefulPartitionedCall/functional_113_1/efficientnetb2_1/block7b_se_expand_1/convolution/ReadVariableOp", "op": "Const", "attr": {"value": {"tensor": {"dtype": "DT_FLOAT", "tensorShape": {"dim": [{"size": "1"}, {"size": "1"}, {"size": "88"}, {"size": "2112"}]}}}, "dtype": {"type": "DT_FLOAT"}}}, {"name": "StatefulPartitionedCall/functional_113_1/efficientnetb2_1/block7b_se_expand_1/Squeeze", "op": "Const", "attr": {"value": {"tensor": {"dtype": "DT_FLOAT", "tensorShape": {"dim": [{"size": "2112"}]}}}, "dtype": {"type": "DT_FLOAT"}}}, {"name": "StatefulPartitionedCall/functional_113_1/efficientnetb2_1/block7b_project_conv_1/convolution/merged_input", "op": "Const", "attr": {"value": {"tensor": {"dtype": "DT_FLOAT", "tensorShape": {"dim": [{"size": "1"}, {"size": "1"}, {"size": "2112"}, {"size": "352"}]}}}, "dtype": {"type": "DT_FLOAT"}}}, {"name": "StatefulPartitionedCall/functional_113_1/efficientnetb2_1/block6e_project_bn_1/batchnorm/sub", "op": "Const", "attr": {"value": {"tensor": {"dtype": "DT_FLOAT", "tensorShape": {"dim": [{"size": "1"}, {"size": "1"}, {"size": "1"}, {"size": "208"}]}}}, "dtype": {"type": "DT_FLOAT"}}}, {"name": "StatefulPartitionedCall/functional_113_1/efficientnetb2_1/block6e_expand_conv_1/convolution/merged_input", "op": "Const", "attr": {"value": {"tensor": {"dtype": "DT_FLOAT", "tensorShape": {"dim": [{"size": "1"}, {"size": "1"}, {"size": "208"}, {"size": "1248"}]}}}, "dtype": {"type": "DT_FLOAT"}}}, {"name": "StatefulPartitionedCall/functional_113_1/efficientnetb2_1/block6e_expand_bn_1/batchnorm/sub", "op": "Const", "attr": {"value": {"tensor": {"dtype": "DT_FLOAT", "tensorShape": {"dim": [{"size": "1"}, {"size": "1"}, {"size": "1"}, {"size": "1248"}]}}}, "dtype": {"type": "DT_FLOAT"}}}, {"name": "StatefulPartitionedCall/functional_113_1/efficientnetb2_1/block6e_dwconv_1/depthwise/ReadVariableOp", "op": "Const", "attr": {"value": {"tensor": {"dtype": "DT_FLOAT", "tensorShape": {"dim": [{"size": "5"}, {"size": "5"}, {"size": "1248"}, {"size": "1"}]}}}, "dtype": {"type": "DT_FLOAT"}}}, {"name": "StatefulPartitionedCall/functional_113_1/efficientnetb2_1/block6e_bn_1/batchnorm/mul", "op": "Const", "attr": {"value": {"tensor": {"dtype": "DT_FLOAT", "tensorShape": {"dim": [{"size": "1"}, {"size": "1"}, {"size": "1"}, {"size": "1248"}]}}}, "dtype": {"type": "DT_FLOAT"}}}, {"name": "StatefulPartitionedCall/functional_113_1/efficientnetb2_1/block6e_bn_1/batchnorm/sub", "op": "Const", "attr": {"value": {"tensor": {"dtype": "DT_FLOAT", "tensorShape": {"dim": [{"size": "1"}, {"size": "1"}, {"size": "1"}, {"size": "1248"}]}}}, "dtype": {"type": "DT_FLOAT"}}}, {"name": "StatefulPartitionedCall/functional_113_1/efficientnetb2_1/block6e_se_squeeze_1/Mean/reduction_indices", "op": "Const", "attr": {"value": {"tensor": {"dtype": "DT_INT32", "tensorShape": {"dim": [{"size": "2"}]}}}, "dtype": {"type": "DT_INT32"}}}, {"name": "StatefulPartitionedCall/functional_113_1/efficientnetb2_1/block6e_se_reshape_1/strided_slice/stack", "op": "Const", "attr": {"value": {"tensor": {"dtype": "DT_INT32", "tensorShape": {"dim": [{"size": "1"}]}}}, "dtype": {"type": "DT_INT32"}}}, {"name": "StatefulPartitionedCall/functional_113_1/efficientnetb2_1/block6e_se_reshape_1/strided_slice/stack_1", "op": "Const", "attr": {"value": {"tensor": {"dtype": "DT_INT32", "tensorShape": {"dim": [{"size": "1"}]}}}, "dtype": {"type": "DT_INT32"}}}, {"name": "StatefulPartitionedCall/functional_113_1/efficientnetb2_1/block6e_se_reshape_1/strided_slice/stack_2", "op": "Const", "attr": {"value": {"tensor": {"dtype": "DT_INT32", "tensorShape": {"dim": [{"size": "1"}]}}}, "dtype": {"type": "DT_INT32"}}}, {"name": "StatefulPartitionedCall/functional_113_1/efficientnetb2_1/block6e_se_reshape_1/Reshape/shape/1", "op": "Const", "attr": {"value": {"tensor": {"dtype": "DT_INT32", "tensorShape": {}}}, "dtype": {"type": "DT_INT32"}}}, {"name": "StatefulPartitionedCall/functional_113_1/efficientnetb2_1/block6e_se_reshape_1/Reshape/shape/2", "op": "Const", "attr": {"value": {"tensor": {"dtype": "DT_INT32", "tensorShape": {}}}, "dtype": {"type": "DT_INT32"}}}, {"name": "StatefulPartitionedCall/functional_113_1/efficientnetb2_1/block6e_se_reshape_1/Reshape/shape/3", "op": "Const", "attr": {"value": {"tensor": {"dtype": "DT_INT32", "tensorShape": {}}}, "dtype": {"type": "DT_INT32"}}}, {"name": "StatefulPartitionedCall/functional_113_1/efficientnetb2_1/block6e_se_reduce_1/convolution/ReadVariableOp", "op": "Const", "attr": {"value": {"tensor": {"dtype": "DT_FLOAT", "tensorShape": {"dim": [{"size": "1"}, {"size": "1"}, {"size": "1248"}, {"size": "52"}]}}}, "dtype": {"type": "DT_FLOAT"}}}, {"name": "StatefulPartitionedCall/functional_113_1/efficientnetb2_1/block6e_se_reduce_1/Squeeze", "op": "Const", "attr": {"value": {"tensor": {"dtype": "DT_FLOAT", "tensorShape": {"dim": [{"size": "52"}]}}}, "dtype": {"type": "DT_FLOAT"}}}, {"name": "StatefulPartitionedCall/functional_113_1/efficientnetb2_1/block6e_se_expand_1/convolution/ReadVariableOp", "op": "Const", "attr": {"value": {"tensor": {"dtype": "DT_FLOAT", "tensorShape": {"dim": [{"size": "1"}, {"size": "1"}, {"size": "52"}, {"size": "1248"}]}}}, "dtype": {"type": "DT_FLOAT"}}}, {"name": "StatefulPartitionedCall/functional_113_1/efficientnetb2_1/block6e_se_expand_1/Squeeze", "op": "Const", "attr": {"value": {"tensor": {"dtype": "DT_FLOAT", "tensorShape": {"dim": [{"size": "1248"}]}}}, "dtype": {"type": "DT_FLOAT"}}}, {"name": "StatefulPartitionedCall/functional_113_1/efficientnetb2_1/block6e_project_conv_1/convolution/merged_input", "op": "Const", "attr": {"value": {"tensor": {"dtype": "DT_FLOAT", "tensorShape": {"dim": [{"size": "1"}, {"size": "1"}, {"size": "1248"}, {"size": "208"}]}}}, "dtype": {"type": "DT_FLOAT"}}}, {"name": "StatefulPartitionedCall/functional_113_1/efficientnetb2_1/block6d_project_bn_1/batchnorm/sub", "op": "Const", "attr": {"value": {"tensor": {"dtype": "DT_FLOAT", "tensorShape": {"dim": [{"size": "1"}, {"size": "1"}, {"size": "1"}, {"size": "208"}]}}}, "dtype": {"type": "DT_FLOAT"}}}, {"name": "StatefulPartitionedCall/functional_113_1/efficientnetb2_1/block6d_expand_conv_1/convolution/merged_input", "op": "Const", "attr": {"value": {"tensor": {"dtype": "DT_FLOAT", "tensorShape": {"dim": [{"size": "1"}, {"size": "1"}, {"size": "208"}, {"size": "1248"}]}}}, "dtype": {"type": "DT_FLOAT"}}}, {"name": "StatefulPartitionedCall/functional_113_1/efficientnetb2_1/block6d_expand_bn_1/batchnorm/sub", "op": "Const", "attr": {"value": {"tensor": {"dtype": "DT_FLOAT", "tensorShape": {"dim": [{"size": "1"}, {"size": "1"}, {"size": "1"}, {"size": "1248"}]}}}, "dtype": {"type": "DT_FLOAT"}}}, {"name": "StatefulPartitionedCall/functional_113_1/efficientnetb2_1/block6d_dwconv_1/depthwise/ReadVariableOp", "op": "Const", "attr": {"value": {"tensor": {"dtype": "DT_FLOAT", "tensorShape": {"dim": [{"size": "5"}, {"size": "5"}, {"size": "1248"}, {"size": "1"}]}}}, "dtype": {"type": "DT_FLOAT"}}}, {"name": "StatefulPartitionedCall/functional_113_1/efficientnetb2_1/block6d_bn_1/batchnorm/mul", "op": "Const", "attr": {"value": {"tensor": {"dtype": "DT_FLOAT", "tensorShape": {"dim": [{"size": "1"}, {"size": "1"}, {"size": "1"}, {"size": "1248"}]}}}, "dtype": {"type": "DT_FLOAT"}}}, {"name": "StatefulPartitionedCall/functional_113_1/efficientnetb2_1/block6d_bn_1/batchnorm/sub", "op": "Const", "attr": {"value": {"tensor": {"dtype": "DT_FLOAT", "tensorShape": {"dim": [{"size": "1"}, {"size": "1"}, {"size": "1"}, {"size": "1248"}]}}}, "dtype": {"type": "DT_FLOAT"}}}, {"name": "StatefulPartitionedCall/functional_113_1/efficientnetb2_1/block6d_se_squeeze_1/Mean/reduction_indices", "op": "Const", "attr": {"value": {"tensor": {"dtype": "DT_INT32", "tensorShape": {"dim": [{"size": "2"}]}}}, "dtype": {"type": "DT_INT32"}}}, {"name": "StatefulPartitionedCall/functional_113_1/efficientnetb2_1/block6d_se_reshape_1/strided_slice/stack", "op": "Const", "attr": {"value": {"tensor": {"dtype": "DT_INT32", "tensorShape": {"dim": [{"size": "1"}]}}}, "dtype": {"type": "DT_INT32"}}}, {"name": "StatefulPartitionedCall/functional_113_1/efficientnetb2_1/block6d_se_reshape_1/strided_slice/stack_1", "op": "Const", "attr": {"value": {"tensor": {"dtype": "DT_INT32", "tensorShape": {"dim": [{"size": "1"}]}}}, "dtype": {"type": "DT_INT32"}}}, {"name": "StatefulPartitionedCall/functional_113_1/efficientnetb2_1/block6d_se_reshape_1/strided_slice/stack_2", "op": "Const", "attr": {"value": {"tensor": {"dtype": "DT_INT32", "tensorShape": {"dim": [{"size": "1"}]}}}, "dtype": {"type": "DT_INT32"}}}, {"name": "StatefulPartitionedCall/functional_113_1/efficientnetb2_1/block6d_se_reshape_1/Reshape/shape/1", "op": "Const", "attr": {"value": {"tensor": {"dtype": "DT_INT32", "tensorShape": {}}}, "dtype": {"type": "DT_INT32"}}}, {"name": "StatefulPartitionedCall/functional_113_1/efficientnetb2_1/block6d_se_reshape_1/Reshape/shape/2", "op": "Const", "attr": {"value": {"tensor": {"dtype": "DT_INT32", "tensorShape": {}}}, "dtype": {"type": "DT_INT32"}}}, {"name": "StatefulPartitionedCall/functional_113_1/efficientnetb2_1/block6d_se_reshape_1/Reshape/shape/3", "op": "Const", "attr": {"value": {"tensor": {"dtype": "DT_INT32", "tensorShape": {}}}, "dtype": {"type": "DT_INT32"}}}, {"name": "StatefulPartitionedCall/functional_113_1/efficientnetb2_1/block6d_se_reduce_1/convolution/ReadVariableOp", "op": "Const", "attr": {"value": {"tensor": {"dtype": "DT_FLOAT", "tensorShape": {"dim": [{"size": "1"}, {"size": "1"}, {"size": "1248"}, {"size": "52"}]}}}, "dtype": {"type": "DT_FLOAT"}}}, {"name": "StatefulPartitionedCall/functional_113_1/efficientnetb2_1/block6d_se_reduce_1/Squeeze", "op": "Const", "attr": {"value": {"tensor": {"dtype": "DT_FLOAT", "tensorShape": {"dim": [{"size": "52"}]}}}, "dtype": {"type": "DT_FLOAT"}}}, {"name": "StatefulPartitionedCall/functional_113_1/efficientnetb2_1/block6d_se_expand_1/convolution/ReadVariableOp", "op": "Const", "attr": {"value": {"tensor": {"dtype": "DT_FLOAT", "tensorShape": {"dim": [{"size": "1"}, {"size": "1"}, {"size": "52"}, {"size": "1248"}]}}}, "dtype": {"type": "DT_FLOAT"}}}, {"name": "StatefulPartitionedCall/functional_113_1/efficientnetb2_1/block6d_se_expand_1/Squeeze", "op": "Const", "attr": {"value": {"tensor": {"dtype": "DT_FLOAT", "tensorShape": {"dim": [{"size": "1248"}]}}}, "dtype": {"type": "DT_FLOAT"}}}, {"name": "StatefulPartitionedCall/functional_113_1/efficientnetb2_1/block6d_project_conv_1/convolution/merged_input", "op": "Const", "attr": {"value": {"tensor": {"dtype": "DT_FLOAT", "tensorShape": {"dim": [{"size": "1"}, {"size": "1"}, {"size": "1248"}, {"size": "208"}]}}}, "dtype": {"type": "DT_FLOAT"}}}, {"name": "StatefulPartitionedCall/functional_113_1/efficientnetb2_1/block6c_project_bn_1/batchnorm/sub", "op": "Const", "attr": {"value": {"tensor": {"dtype": "DT_FLOAT", "tensorShape": {"dim": [{"size": "1"}, {"size": "1"}, {"size": "1"}, {"size": "208"}]}}}, "dtype": {"type": "DT_FLOAT"}}}, {"name": "StatefulPartitionedCall/functional_113_1/efficientnetb2_1/block6c_expand_conv_1/convolution/merged_input", "op": "Const", "attr": {"value": {"tensor": {"dtype": "DT_FLOAT", "tensorShape": {"dim": [{"size": "1"}, {"size": "1"}, {"size": "208"}, {"size": "1248"}]}}}, "dtype": {"type": "DT_FLOAT"}}}, {"name": "StatefulPartitionedCall/functional_113_1/efficientnetb2_1/block6c_expand_bn_1/batchnorm/sub", "op": "Const", "attr": {"value": {"tensor": {"dtype": "DT_FLOAT", "tensorShape": {"dim": [{"size": "1"}, {"size": "1"}, {"size": "1"}, {"size": "1248"}]}}}, "dtype": {"type": "DT_FLOAT"}}}, {"name": "StatefulPartitionedCall/functional_113_1/efficientnetb2_1/block6c_dwconv_1/depthwise/ReadVariableOp", "op": "Const", "attr": {"value": {"tensor": {"dtype": "DT_FLOAT", "tensorShape": {"dim": [{"size": "5"}, {"size": "5"}, {"size": "1248"}, {"size": "1"}]}}}, "dtype": {"type": "DT_FLOAT"}}}, {"name": "StatefulPartitionedCall/functional_113_1/efficientnetb2_1/block6c_bn_1/batchnorm/mul", "op": "Const", "attr": {"value": {"tensor": {"dtype": "DT_FLOAT", "tensorShape": {"dim": [{"size": "1"}, {"size": "1"}, {"size": "1"}, {"size": "1248"}]}}}, "dtype": {"type": "DT_FLOAT"}}}, {"name": "StatefulPartitionedCall/functional_113_1/efficientnetb2_1/block6c_bn_1/batchnorm/sub", "op": "Const", "attr": {"value": {"tensor": {"dtype": "DT_FLOAT", "tensorShape": {"dim": [{"size": "1"}, {"size": "1"}, {"size": "1"}, {"size": "1248"}]}}}, "dtype": {"type": "DT_FLOAT"}}}, {"name": "StatefulPartitionedCall/functional_113_1/efficientnetb2_1/block6c_se_squeeze_1/Mean/reduction_indices", "op": "Const", "attr": {"value": {"tensor": {"dtype": "DT_INT32", "tensorShape": {"dim": [{"size": "2"}]}}}, "dtype": {"type": "DT_INT32"}}}, {"name": "StatefulPartitionedCall/functional_113_1/efficientnetb2_1/block6c_se_reshape_1/strided_slice/stack", "op": "Const", "attr": {"value": {"tensor": {"dtype": "DT_INT32", "tensorShape": {"dim": [{"size": "1"}]}}}, "dtype": {"type": "DT_INT32"}}}, {"name": "StatefulPartitionedCall/functional_113_1/efficientnetb2_1/block6c_se_reshape_1/strided_slice/stack_1", "op": "Const", "attr": {"value": {"tensor": {"dtype": "DT_INT32", "tensorShape": {"dim": [{"size": "1"}]}}}, "dtype": {"type": "DT_INT32"}}}, {"name": "StatefulPartitionedCall/functional_113_1/efficientnetb2_1/block6c_se_reshape_1/strided_slice/stack_2", "op": "Const", "attr": {"value": {"tensor": {"dtype": "DT_INT32", "tensorShape": {"dim": [{"size": "1"}]}}}, "dtype": {"type": "DT_INT32"}}}, {"name": "StatefulPartitionedCall/functional_113_1/efficientnetb2_1/block6c_se_reshape_1/Reshape/shape/1", "op": "Const", "attr": {"value": {"tensor": {"dtype": "DT_INT32", "tensorShape": {}}}, "dtype": {"type": "DT_INT32"}}}, {"name": "StatefulPartitionedCall/functional_113_1/efficientnetb2_1/block6c_se_reshape_1/Reshape/shape/2", "op": "Const", "attr": {"value": {"tensor": {"dtype": "DT_INT32", "tensorShape": {}}}, "dtype": {"type": "DT_INT32"}}}, {"name": "StatefulPartitionedCall/functional_113_1/efficientnetb2_1/block6c_se_reshape_1/Reshape/shape/3", "op": "Const", "attr": {"value": {"tensor": {"dtype": "DT_INT32", "tensorShape": {}}}, "dtype": {"type": "DT_INT32"}}}, {"name": "StatefulPartitionedCall/functional_113_1/efficientnetb2_1/block6c_se_reduce_1/convolution/ReadVariableOp", "op": "Const", "attr": {"value": {"tensor": {"dtype": "DT_FLOAT", "tensorShape": {"dim": [{"size": "1"}, {"size": "1"}, {"size": "1248"}, {"size": "52"}]}}}, "dtype": {"type": "DT_FLOAT"}}}, {"name": "StatefulPartitionedCall/functional_113_1/efficientnetb2_1/block6c_se_reduce_1/Squeeze", "op": "Const", "attr": {"value": {"tensor": {"dtype": "DT_FLOAT", "tensorShape": {"dim": [{"size": "52"}]}}}, "dtype": {"type": "DT_FLOAT"}}}, {"name": "StatefulPartitionedCall/functional_113_1/efficientnetb2_1/block6c_se_expand_1/convolution/ReadVariableOp", "op": "Const", "attr": {"value": {"tensor": {"dtype": "DT_FLOAT", "tensorShape": {"dim": [{"size": "1"}, {"size": "1"}, {"size": "52"}, {"size": "1248"}]}}}, "dtype": {"type": "DT_FLOAT"}}}, {"name": "StatefulPartitionedCall/functional_113_1/efficientnetb2_1/block6c_se_expand_1/Squeeze", "op": "Const", "attr": {"value": {"tensor": {"dtype": "DT_FLOAT", "tensorShape": {"dim": [{"size": "1248"}]}}}, "dtype": {"type": "DT_FLOAT"}}}, {"name": "StatefulPartitionedCall/functional_113_1/efficientnetb2_1/block6c_project_conv_1/convolution/merged_input", "op": "Const", "attr": {"value": {"tensor": {"dtype": "DT_FLOAT", "tensorShape": {"dim": [{"size": "1"}, {"size": "1"}, {"size": "1248"}, {"size": "208"}]}}}, "dtype": {"type": "DT_FLOAT"}}}, {"name": "StatefulPartitionedCall/functional_113_1/efficientnetb2_1/block6b_project_bn_1/batchnorm/sub", "op": "Const", "attr": {"value": {"tensor": {"dtype": "DT_FLOAT", "tensorShape": {"dim": [{"size": "1"}, {"size": "1"}, {"size": "1"}, {"size": "208"}]}}}, "dtype": {"type": "DT_FLOAT"}}}, {"name": "StatefulPartitionedCall/functional_113_1/efficientnetb2_1/block6b_expand_conv_1/convolution/merged_input", "op": "Const", "attr": {"value": {"tensor": {"dtype": "DT_FLOAT", "tensorShape": {"dim": [{"size": "1"}, {"size": "1"}, {"size": "208"}, {"size": "1248"}]}}}, "dtype": {"type": "DT_FLOAT"}}}, {"name": "StatefulPartitionedCall/functional_113_1/efficientnetb2_1/block6b_expand_bn_1/batchnorm/sub", "op": "Const", "attr": {"value": {"tensor": {"dtype": "DT_FLOAT", "tensorShape": {"dim": [{"size": "1"}, {"size": "1"}, {"size": "1"}, {"size": "1248"}]}}}, "dtype": {"type": "DT_FLOAT"}}}, {"name": "StatefulPartitionedCall/functional_113_1/efficientnetb2_1/block6b_dwconv_1/depthwise/ReadVariableOp", "op": "Const", "attr": {"value": {"tensor": {"dtype": "DT_FLOAT", "tensorShape": {"dim": [{"size": "5"}, {"size": "5"}, {"size": "1248"}, {"size": "1"}]}}}, "dtype": {"type": "DT_FLOAT"}}}, {"name": "StatefulPartitionedCall/functional_113_1/efficientnetb2_1/block6b_bn_1/batchnorm/mul", "op": "Const", "attr": {"value": {"tensor": {"dtype": "DT_FLOAT", "tensorShape": {"dim": [{"size": "1"}, {"size": "1"}, {"size": "1"}, {"size": "1248"}]}}}, "dtype": {"type": "DT_FLOAT"}}}, {"name": "StatefulPartitionedCall/functional_113_1/efficientnetb2_1/block6b_bn_1/batchnorm/sub", "op": "Const", "attr": {"value": {"tensor": {"dtype": "DT_FLOAT", "tensorShape": {"dim": [{"size": "1"}, {"size": "1"}, {"size": "1"}, {"size": "1248"}]}}}, "dtype": {"type": "DT_FLOAT"}}}, {"name": "StatefulPartitionedCall/functional_113_1/efficientnetb2_1/block6b_se_squeeze_1/Mean/reduction_indices", "op": "Const", "attr": {"value": {"tensor": {"dtype": "DT_INT32", "tensorShape": {"dim": [{"size": "2"}]}}}, "dtype": {"type": "DT_INT32"}}}, {"name": "StatefulPartitionedCall/functional_113_1/efficientnetb2_1/block6b_se_reshape_1/strided_slice/stack", "op": "Const", "attr": {"value": {"tensor": {"dtype": "DT_INT32", "tensorShape": {"dim": [{"size": "1"}]}}}, "dtype": {"type": "DT_INT32"}}}, {"name": "StatefulPartitionedCall/functional_113_1/efficientnetb2_1/block6b_se_reshape_1/strided_slice/stack_1", "op": "Const", "attr": {"value": {"tensor": {"dtype": "DT_INT32", "tensorShape": {"dim": [{"size": "1"}]}}}, "dtype": {"type": "DT_INT32"}}}, {"name": "StatefulPartitionedCall/functional_113_1/efficientnetb2_1/block6b_se_reshape_1/strided_slice/stack_2", "op": "Const", "attr": {"value": {"tensor": {"dtype": "DT_INT32", "tensorShape": {"dim": [{"size": "1"}]}}}, "dtype": {"type": "DT_INT32"}}}, {"name": "StatefulPartitionedCall/functional_113_1/efficientnetb2_1/block6b_se_reshape_1/Reshape/shape/1", "op": "Const", "attr": {"value": {"tensor": {"dtype": "DT_INT32", "tensorShape": {}}}, "dtype": {"type": "DT_INT32"}}}, {"name": "StatefulPartitionedCall/functional_113_1/efficientnetb2_1/block6b_se_reshape_1/Reshape/shape/2", "op": "Const", "attr": {"value": {"tensor": {"dtype": "DT_INT32", "tensorShape": {}}}, "dtype": {"type": "DT_INT32"}}}, {"name": "StatefulPartitionedCall/functional_113_1/efficientnetb2_1/block6b_se_reshape_1/Reshape/shape/3", "op": "Const", "attr": {"value": {"tensor": {"dtype": "DT_INT32", "tensorShape": {}}}, "dtype": {"type": "DT_INT32"}}}, {"name": "StatefulPartitionedCall/functional_113_1/efficientnetb2_1/block6b_se_reduce_1/convolution/ReadVariableOp", "op": "Const", "attr": {"value": {"tensor": {"dtype": "DT_FLOAT", "tensorShape": {"dim": [{"size": "1"}, {"size": "1"}, {"size": "1248"}, {"size": "52"}]}}}, "dtype": {"type": "DT_FLOAT"}}}, {"name": "StatefulPartitionedCall/functional_113_1/efficientnetb2_1/block6b_se_reduce_1/Squeeze", "op": "Const", "attr": {"value": {"tensor": {"dtype": "DT_FLOAT", "tensorShape": {"dim": [{"size": "52"}]}}}, "dtype": {"type": "DT_FLOAT"}}}, {"name": "StatefulPartitionedCall/functional_113_1/efficientnetb2_1/block6b_se_expand_1/convolution/ReadVariableOp", "op": "Const", "attr": {"value": {"tensor": {"dtype": "DT_FLOAT", "tensorShape": {"dim": [{"size": "1"}, {"size": "1"}, {"size": "52"}, {"size": "1248"}]}}}, "dtype": {"type": "DT_FLOAT"}}}, {"name": "StatefulPartitionedCall/functional_113_1/efficientnetb2_1/block6b_se_expand_1/Squeeze", "op": "Const", "attr": {"value": {"tensor": {"dtype": "DT_FLOAT", "tensorShape": {"dim": [{"size": "1248"}]}}}, "dtype": {"type": "DT_FLOAT"}}}, {"name": "StatefulPartitionedCall/functional_113_1/efficientnetb2_1/block6b_project_conv_1/convolution/merged_input", "op": "Const", "attr": {"value": {"tensor": {"dtype": "DT_FLOAT", "tensorShape": {"dim": [{"size": "1"}, {"size": "1"}, {"size": "1248"}, {"size": "208"}]}}}, "dtype": {"type": "DT_FLOAT"}}}, {"name": "StatefulPartitionedCall/functional_113_1/efficientnetb2_1/block5d_project_bn_1/batchnorm/sub", "op": "Const", "attr": {"value": {"tensor": {"dtype": "DT_FLOAT", "tensorShape": {"dim": [{"size": "1"}, {"size": "1"}, {"size": "1"}, {"size": "120"}]}}}, "dtype": {"type": "DT_FLOAT"}}}, {"name": "StatefulPartitionedCall/functional_113_1/efficientnetb2_1/block5d_expand_conv_1/convolution/merged_input", "op": "Const", "attr": {"value": {"tensor": {"dtype": "DT_FLOAT", "tensorShape": {"dim": [{"size": "1"}, {"size": "1"}, {"size": "120"}, {"size": "720"}]}}}, "dtype": {"type": "DT_FLOAT"}}}, {"name": "StatefulPartitionedCall/functional_113_1/efficientnetb2_1/block5d_expand_bn_1/batchnorm/sub", "op": "Const", "attr": {"value": {"tensor": {"dtype": "DT_FLOAT", "tensorShape": {"dim": [{"size": "1"}, {"size": "1"}, {"size": "1"}, {"size": "720"}]}}}, "dtype": {"type": "DT_FLOAT"}}}, {"name": "StatefulPartitionedCall/functional_113_1/efficientnetb2_1/block5d_dwconv_1/depthwise/ReadVariableOp", "op": "Const", "attr": {"value": {"tensor": {"dtype": "DT_FLOAT", "tensorShape": {"dim": [{"size": "5"}, {"size": "5"}, {"size": "720"}, {"size": "1"}]}}}, "dtype": {"type": "DT_FLOAT"}}}, {"name": "StatefulPartitionedCall/functional_113_1/efficientnetb2_1/block5d_bn_1/batchnorm/mul", "op": "Const", "attr": {"value": {"tensor": {"dtype": "DT_FLOAT", "tensorShape": {"dim": [{"size": "1"}, {"size": "1"}, {"size": "1"}, {"size": "720"}]}}}, "dtype": {"type": "DT_FLOAT"}}}, {"name": "StatefulPartitionedCall/functional_113_1/efficientnetb2_1/block5d_bn_1/batchnorm/sub", "op": "Const", "attr": {"value": {"tensor": {"dtype": "DT_FLOAT", "tensorShape": {"dim": [{"size": "1"}, {"size": "1"}, {"size": "1"}, {"size": "720"}]}}}, "dtype": {"type": "DT_FLOAT"}}}, {"name": "StatefulPartitionedCall/functional_113_1/efficientnetb2_1/block5d_se_squeeze_1/Mean/reduction_indices", "op": "Const", "attr": {"value": {"tensor": {"dtype": "DT_INT32", "tensorShape": {"dim": [{"size": "2"}]}}}, "dtype": {"type": "DT_INT32"}}}, {"name": "StatefulPartitionedCall/functional_113_1/efficientnetb2_1/block5d_se_reshape_1/strided_slice/stack", "op": "Const", "attr": {"value": {"tensor": {"dtype": "DT_INT32", "tensorShape": {"dim": [{"size": "1"}]}}}, "dtype": {"type": "DT_INT32"}}}, {"name": "StatefulPartitionedCall/functional_113_1/efficientnetb2_1/block5d_se_reshape_1/strided_slice/stack_1", "op": "Const", "attr": {"value": {"tensor": {"dtype": "DT_INT32", "tensorShape": {"dim": [{"size": "1"}]}}}, "dtype": {"type": "DT_INT32"}}}, {"name": "StatefulPartitionedCall/functional_113_1/efficientnetb2_1/block5d_se_reshape_1/strided_slice/stack_2", "op": "Const", "attr": {"value": {"tensor": {"dtype": "DT_INT32", "tensorShape": {"dim": [{"size": "1"}]}}}, "dtype": {"type": "DT_INT32"}}}, {"name": "StatefulPartitionedCall/functional_113_1/efficientnetb2_1/block5d_se_reshape_1/Reshape/shape/1", "op": "Const", "attr": {"value": {"tensor": {"dtype": "DT_INT32", "tensorShape": {}}}, "dtype": {"type": "DT_INT32"}}}, {"name": "StatefulPartitionedCall/functional_113_1/efficientnetb2_1/block5d_se_reshape_1/Reshape/shape/2", "op": "Const", "attr": {"value": {"tensor": {"dtype": "DT_INT32", "tensorShape": {}}}, "dtype": {"type": "DT_INT32"}}}, {"name": "StatefulPartitionedCall/functional_113_1/efficientnetb2_1/block5d_se_reshape_1/Reshape/shape/3", "op": "Const", "attr": {"value": {"tensor": {"dtype": "DT_INT32", "tensorShape": {}}}, "dtype": {"type": "DT_INT32"}}}, {"name": "StatefulPartitionedCall/functional_113_1/efficientnetb2_1/block5d_se_reduce_1/convolution/ReadVariableOp", "op": "Const", "attr": {"value": {"tensor": {"dtype": "DT_FLOAT", "tensorShape": {"dim": [{"size": "1"}, {"size": "1"}, {"size": "720"}, {"size": "30"}]}}}, "dtype": {"type": "DT_FLOAT"}}}, {"name": "StatefulPartitionedCall/functional_113_1/efficientnetb2_1/block5d_se_reduce_1/Squeeze", "op": "Const", "attr": {"value": {"tensor": {"dtype": "DT_FLOAT", "tensorShape": {"dim": [{"size": "30"}]}}}, "dtype": {"type": "DT_FLOAT"}}}, {"name": "StatefulPartitionedCall/functional_113_1/efficientnetb2_1/block5d_se_expand_1/convolution/ReadVariableOp", "op": "Const", "attr": {"value": {"tensor": {"dtype": "DT_FLOAT", "tensorShape": {"dim": [{"size": "1"}, {"size": "1"}, {"size": "30"}, {"size": "720"}]}}}, "dtype": {"type": "DT_FLOAT"}}}, {"name": "StatefulPartitionedCall/functional_113_1/efficientnetb2_1/block5d_se_expand_1/Squeeze", "op": "Const", "attr": {"value": {"tensor": {"dtype": "DT_FLOAT", "tensorShape": {"dim": [{"size": "720"}]}}}, "dtype": {"type": "DT_FLOAT"}}}, {"name": "StatefulPartitionedCall/functional_113_1/efficientnetb2_1/block5d_project_conv_1/convolution/merged_input", "op": "Const", "attr": {"value": {"tensor": {"dtype": "DT_FLOAT", "tensorShape": {"dim": [{"size": "1"}, {"size": "1"}, {"size": "720"}, {"size": "120"}]}}}, "dtype": {"type": "DT_FLOAT"}}}, {"name": "StatefulPartitionedCall/functional_113_1/efficientnetb2_1/block5c_project_bn_1/batchnorm/sub", "op": "Const", "attr": {"value": {"tensor": {"dtype": "DT_FLOAT", "tensorShape": {"dim": [{"size": "1"}, {"size": "1"}, {"size": "1"}, {"size": "120"}]}}}, "dtype": {"type": "DT_FLOAT"}}}, {"name": "StatefulPartitionedCall/functional_113_1/efficientnetb2_1/block5c_expand_conv_1/convolution/merged_input", "op": "Const", "attr": {"value": {"tensor": {"dtype": "DT_FLOAT", "tensorShape": {"dim": [{"size": "1"}, {"size": "1"}, {"size": "120"}, {"size": "720"}]}}}, "dtype": {"type": "DT_FLOAT"}}}, {"name": "StatefulPartitionedCall/functional_113_1/efficientnetb2_1/block5c_expand_bn_1/batchnorm/sub", "op": "Const", "attr": {"value": {"tensor": {"dtype": "DT_FLOAT", "tensorShape": {"dim": [{"size": "1"}, {"size": "1"}, {"size": "1"}, {"size": "720"}]}}}, "dtype": {"type": "DT_FLOAT"}}}, {"name": "StatefulPartitionedCall/functional_113_1/efficientnetb2_1/block5c_dwconv_1/depthwise/ReadVariableOp", "op": "Const", "attr": {"value": {"tensor": {"dtype": "DT_FLOAT", "tensorShape": {"dim": [{"size": "5"}, {"size": "5"}, {"size": "720"}, {"size": "1"}]}}}, "dtype": {"type": "DT_FLOAT"}}}, {"name": "StatefulPartitionedCall/functional_113_1/efficientnetb2_1/block5c_bn_1/batchnorm/mul", "op": "Const", "attr": {"value": {"tensor": {"dtype": "DT_FLOAT", "tensorShape": {"dim": [{"size": "1"}, {"size": "1"}, {"size": "1"}, {"size": "720"}]}}}, "dtype": {"type": "DT_FLOAT"}}}, {"name": "StatefulPartitionedCall/functional_113_1/efficientnetb2_1/block5c_bn_1/batchnorm/sub", "op": "Const", "attr": {"value": {"tensor": {"dtype": "DT_FLOAT", "tensorShape": {"dim": [{"size": "1"}, {"size": "1"}, {"size": "1"}, {"size": "720"}]}}}, "dtype": {"type": "DT_FLOAT"}}}, {"name": "StatefulPartitionedCall/functional_113_1/efficientnetb2_1/block5c_se_squeeze_1/Mean/reduction_indices", "op": "Const", "attr": {"value": {"tensor": {"dtype": "DT_INT32", "tensorShape": {"dim": [{"size": "2"}]}}}, "dtype": {"type": "DT_INT32"}}}, {"name": "StatefulPartitionedCall/functional_113_1/efficientnetb2_1/block5c_se_reshape_1/strided_slice/stack", "op": "Const", "attr": {"value": {"tensor": {"dtype": "DT_INT32", "tensorShape": {"dim": [{"size": "1"}]}}}, "dtype": {"type": "DT_INT32"}}}, {"name": "StatefulPartitionedCall/functional_113_1/efficientnetb2_1/block5c_se_reshape_1/strided_slice/stack_1", "op": "Const", "attr": {"value": {"tensor": {"dtype": "DT_INT32", "tensorShape": {"dim": [{"size": "1"}]}}}, "dtype": {"type": "DT_INT32"}}}, {"name": "StatefulPartitionedCall/functional_113_1/efficientnetb2_1/block5c_se_reshape_1/strided_slice/stack_2", "op": "Const", "attr": {"value": {"tensor": {"dtype": "DT_INT32", "tensorShape": {"dim": [{"size": "1"}]}}}, "dtype": {"type": "DT_INT32"}}}, {"name": "StatefulPartitionedCall/functional_113_1/efficientnetb2_1/block5c_se_reshape_1/Reshape/shape/1", "op": "Const", "attr": {"value": {"tensor": {"dtype": "DT_INT32", "tensorShape": {}}}, "dtype": {"type": "DT_INT32"}}}, {"name": "StatefulPartitionedCall/functional_113_1/efficientnetb2_1/block5c_se_reshape_1/Reshape/shape/2", "op": "Const", "attr": {"value": {"tensor": {"dtype": "DT_INT32", "tensorShape": {}}}, "dtype": {"type": "DT_INT32"}}}, {"name": "StatefulPartitionedCall/functional_113_1/efficientnetb2_1/block5c_se_reshape_1/Reshape/shape/3", "op": "Const", "attr": {"value": {"tensor": {"dtype": "DT_INT32", "tensorShape": {}}}, "dtype": {"type": "DT_INT32"}}}, {"name": "StatefulPartitionedCall/functional_113_1/efficientnetb2_1/block5c_se_reduce_1/convolution/ReadVariableOp", "op": "Const", "attr": {"value": {"tensor": {"dtype": "DT_FLOAT", "tensorShape": {"dim": [{"size": "1"}, {"size": "1"}, {"size": "720"}, {"size": "30"}]}}}, "dtype": {"type": "DT_FLOAT"}}}, {"name": "StatefulPartitionedCall/functional_113_1/efficientnetb2_1/block5c_se_reduce_1/Squeeze", "op": "Const", "attr": {"value": {"tensor": {"dtype": "DT_FLOAT", "tensorShape": {"dim": [{"size": "30"}]}}}, "dtype": {"type": "DT_FLOAT"}}}, {"name": "StatefulPartitionedCall/functional_113_1/efficientnetb2_1/block5c_se_expand_1/convolution/ReadVariableOp", "op": "Const", "attr": {"value": {"tensor": {"dtype": "DT_FLOAT", "tensorShape": {"dim": [{"size": "1"}, {"size": "1"}, {"size": "30"}, {"size": "720"}]}}}, "dtype": {"type": "DT_FLOAT"}}}, {"name": "StatefulPartitionedCall/functional_113_1/efficientnetb2_1/block5c_se_expand_1/Squeeze", "op": "Const", "attr": {"value": {"tensor": {"dtype": "DT_FLOAT", "tensorShape": {"dim": [{"size": "720"}]}}}, "dtype": {"type": "DT_FLOAT"}}}, {"name": "StatefulPartitionedCall/functional_113_1/efficientnetb2_1/block5c_project_conv_1/convolution/merged_input", "op": "Const", "attr": {"value": {"tensor": {"dtype": "DT_FLOAT", "tensorShape": {"dim": [{"size": "1"}, {"size": "1"}, {"size": "720"}, {"size": "120"}]}}}, "dtype": {"type": "DT_FLOAT"}}}, {"name": "StatefulPartitionedCall/functional_113_1/efficientnetb2_1/block5b_project_bn_1/batchnorm/sub", "op": "Const", "attr": {"value": {"tensor": {"dtype": "DT_FLOAT", "tensorShape": {"dim": [{"size": "1"}, {"size": "1"}, {"size": "1"}, {"size": "120"}]}}}, "dtype": {"type": "DT_FLOAT"}}}, {"name": "StatefulPartitionedCall/functional_113_1/efficientnetb2_1/block5b_expand_conv_1/convolution/merged_input", "op": "Const", "attr": {"value": {"tensor": {"dtype": "DT_FLOAT", "tensorShape": {"dim": [{"size": "1"}, {"size": "1"}, {"size": "120"}, {"size": "720"}]}}}, "dtype": {"type": "DT_FLOAT"}}}, {"name": "StatefulPartitionedCall/functional_113_1/efficientnetb2_1/block5b_expand_bn_1/batchnorm/sub", "op": "Const", "attr": {"value": {"tensor": {"dtype": "DT_FLOAT", "tensorShape": {"dim": [{"size": "1"}, {"size": "1"}, {"size": "1"}, {"size": "720"}]}}}, "dtype": {"type": "DT_FLOAT"}}}, {"name": "StatefulPartitionedCall/functional_113_1/efficientnetb2_1/block5b_dwconv_1/depthwise/ReadVariableOp", "op": "Const", "attr": {"value": {"tensor": {"dtype": "DT_FLOAT", "tensorShape": {"dim": [{"size": "5"}, {"size": "5"}, {"size": "720"}, {"size": "1"}]}}}, "dtype": {"type": "DT_FLOAT"}}}, {"name": "StatefulPartitionedCall/functional_113_1/efficientnetb2_1/block5b_bn_1/batchnorm/mul", "op": "Const", "attr": {"value": {"tensor": {"dtype": "DT_FLOAT", "tensorShape": {"dim": [{"size": "1"}, {"size": "1"}, {"size": "1"}, {"size": "720"}]}}}, "dtype": {"type": "DT_FLOAT"}}}, {"name": "StatefulPartitionedCall/functional_113_1/efficientnetb2_1/block5b_bn_1/batchnorm/sub", "op": "Const", "attr": {"value": {"tensor": {"dtype": "DT_FLOAT", "tensorShape": {"dim": [{"size": "1"}, {"size": "1"}, {"size": "1"}, {"size": "720"}]}}}, "dtype": {"type": "DT_FLOAT"}}}, {"name": "StatefulPartitionedCall/functional_113_1/efficientnetb2_1/block5b_se_squeeze_1/Mean/reduction_indices", "op": "Const", "attr": {"value": {"tensor": {"dtype": "DT_INT32", "tensorShape": {"dim": [{"size": "2"}]}}}, "dtype": {"type": "DT_INT32"}}}, {"name": "StatefulPartitionedCall/functional_113_1/efficientnetb2_1/block5b_se_reshape_1/strided_slice/stack", "op": "Const", "attr": {"value": {"tensor": {"dtype": "DT_INT32", "tensorShape": {"dim": [{"size": "1"}]}}}, "dtype": {"type": "DT_INT32"}}}, {"name": "StatefulPartitionedCall/functional_113_1/efficientnetb2_1/block5b_se_reshape_1/strided_slice/stack_1", "op": "Const", "attr": {"value": {"tensor": {"dtype": "DT_INT32", "tensorShape": {"dim": [{"size": "1"}]}}}, "dtype": {"type": "DT_INT32"}}}, {"name": "StatefulPartitionedCall/functional_113_1/efficientnetb2_1/block5b_se_reshape_1/strided_slice/stack_2", "op": "Const", "attr": {"value": {"tensor": {"dtype": "DT_INT32", "tensorShape": {"dim": [{"size": "1"}]}}}, "dtype": {"type": "DT_INT32"}}}, {"name": "StatefulPartitionedCall/functional_113_1/efficientnetb2_1/block5b_se_reshape_1/Reshape/shape/1", "op": "Const", "attr": {"value": {"tensor": {"dtype": "DT_INT32", "tensorShape": {}}}, "dtype": {"type": "DT_INT32"}}}, {"name": "StatefulPartitionedCall/functional_113_1/efficientnetb2_1/block5b_se_reshape_1/Reshape/shape/2", "op": "Const", "attr": {"value": {"tensor": {"dtype": "DT_INT32", "tensorShape": {}}}, "dtype": {"type": "DT_INT32"}}}, {"name": "StatefulPartitionedCall/functional_113_1/efficientnetb2_1/block5b_se_reshape_1/Reshape/shape/3", "op": "Const", "attr": {"value": {"tensor": {"dtype": "DT_INT32", "tensorShape": {}}}, "dtype": {"type": "DT_INT32"}}}, {"name": "StatefulPartitionedCall/functional_113_1/efficientnetb2_1/block5b_se_reduce_1/convolution/ReadVariableOp", "op": "Const", "attr": {"value": {"tensor": {"dtype": "DT_FLOAT", "tensorShape": {"dim": [{"size": "1"}, {"size": "1"}, {"size": "720"}, {"size": "30"}]}}}, "dtype": {"type": "DT_FLOAT"}}}, {"name": "StatefulPartitionedCall/functional_113_1/efficientnetb2_1/block5b_se_reduce_1/Squeeze", "op": "Const", "attr": {"value": {"tensor": {"dtype": "DT_FLOAT", "tensorShape": {"dim": [{"size": "30"}]}}}, "dtype": {"type": "DT_FLOAT"}}}, {"name": "StatefulPartitionedCall/functional_113_1/efficientnetb2_1/block5b_se_expand_1/convolution/ReadVariableOp", "op": "Const", "attr": {"value": {"tensor": {"dtype": "DT_FLOAT", "tensorShape": {"dim": [{"size": "1"}, {"size": "1"}, {"size": "30"}, {"size": "720"}]}}}, "dtype": {"type": "DT_FLOAT"}}}, {"name": "StatefulPartitionedCall/functional_113_1/efficientnetb2_1/block5b_se_expand_1/Squeeze", "op": "Const", "attr": {"value": {"tensor": {"dtype": "DT_FLOAT", "tensorShape": {"dim": [{"size": "720"}]}}}, "dtype": {"type": "DT_FLOAT"}}}, {"name": "StatefulPartitionedCall/functional_113_1/efficientnetb2_1/block5b_project_conv_1/convolution/merged_input", "op": "Const", "attr": {"value": {"tensor": {"dtype": "DT_FLOAT", "tensorShape": {"dim": [{"size": "1"}, {"size": "1"}, {"size": "720"}, {"size": "120"}]}}}, "dtype": {"type": "DT_FLOAT"}}}, {"name": "StatefulPartitionedCall/functional_113_1/efficientnetb2_1/block4d_project_bn_1/batchnorm/sub", "op": "Const", "attr": {"value": {"tensor": {"dtype": "DT_FLOAT", "tensorShape": {"dim": [{"size": "1"}, {"size": "1"}, {"size": "1"}, {"size": "88"}]}}}, "dtype": {"type": "DT_FLOAT"}}}, {"name": "StatefulPartitionedCall/functional_113_1/efficientnetb2_1/block4d_expand_conv_1/convolution/merged_input", "op": "Const", "attr": {"value": {"tensor": {"dtype": "DT_FLOAT", "tensorShape": {"dim": [{"size": "1"}, {"size": "1"}, {"size": "88"}, {"size": "528"}]}}}, "dtype": {"type": "DT_FLOAT"}}}, {"name": "StatefulPartitionedCall/functional_113_1/efficientnetb2_1/block4d_expand_bn_1/batchnorm/sub", "op": "Const", "attr": {"value": {"tensor": {"dtype": "DT_FLOAT", "tensorShape": {"dim": [{"size": "1"}, {"size": "1"}, {"size": "1"}, {"size": "528"}]}}}, "dtype": {"type": "DT_FLOAT"}}}, {"name": "StatefulPartitionedCall/functional_113_1/efficientnetb2_1/block4d_dwconv_1/depthwise/ReadVariableOp", "op": "Const", "attr": {"value": {"tensor": {"dtype": "DT_FLOAT", "tensorShape": {"dim": [{"size": "3"}, {"size": "3"}, {"size": "528"}, {"size": "1"}]}}}, "dtype": {"type": "DT_FLOAT"}}}, {"name": "StatefulPartitionedCall/functional_113_1/efficientnetb2_1/block4d_bn_1/batchnorm/mul", "op": "Const", "attr": {"value": {"tensor": {"dtype": "DT_FLOAT", "tensorShape": {"dim": [{"size": "1"}, {"size": "1"}, {"size": "1"}, {"size": "528"}]}}}, "dtype": {"type": "DT_FLOAT"}}}, {"name": "StatefulPartitionedCall/functional_113_1/efficientnetb2_1/block4d_bn_1/batchnorm/sub", "op": "Const", "attr": {"value": {"tensor": {"dtype": "DT_FLOAT", "tensorShape": {"dim": [{"size": "1"}, {"size": "1"}, {"size": "1"}, {"size": "528"}]}}}, "dtype": {"type": "DT_FLOAT"}}}, {"name": "StatefulPartitionedCall/functional_113_1/efficientnetb2_1/block4d_se_squeeze_1/Mean/reduction_indices", "op": "Const", "attr": {"value": {"tensor": {"dtype": "DT_INT32", "tensorShape": {"dim": [{"size": "2"}]}}}, "dtype": {"type": "DT_INT32"}}}, {"name": "StatefulPartitionedCall/functional_113_1/efficientnetb2_1/block4d_se_reshape_1/strided_slice/stack", "op": "Const", "attr": {"value": {"tensor": {"dtype": "DT_INT32", "tensorShape": {"dim": [{"size": "1"}]}}}, "dtype": {"type": "DT_INT32"}}}, {"name": "StatefulPartitionedCall/functional_113_1/efficientnetb2_1/block4d_se_reshape_1/strided_slice/stack_1", "op": "Const", "attr": {"value": {"tensor": {"dtype": "DT_INT32", "tensorShape": {"dim": [{"size": "1"}]}}}, "dtype": {"type": "DT_INT32"}}}, {"name": "StatefulPartitionedCall/functional_113_1/efficientnetb2_1/block4d_se_reshape_1/strided_slice/stack_2", "op": "Const", "attr": {"value": {"tensor": {"dtype": "DT_INT32", "tensorShape": {"dim": [{"size": "1"}]}}}, "dtype": {"type": "DT_INT32"}}}, {"name": "StatefulPartitionedCall/functional_113_1/efficientnetb2_1/block4d_se_reshape_1/Reshape/shape/1", "op": "Const", "attr": {"value": {"tensor": {"dtype": "DT_INT32", "tensorShape": {}}}, "dtype": {"type": "DT_INT32"}}}, {"name": "StatefulPartitionedCall/functional_113_1/efficientnetb2_1/block4d_se_reshape_1/Reshape/shape/2", "op": "Const", "attr": {"value": {"tensor": {"dtype": "DT_INT32", "tensorShape": {}}}, "dtype": {"type": "DT_INT32"}}}, {"name": "StatefulPartitionedCall/functional_113_1/efficientnetb2_1/block4d_se_reshape_1/Reshape/shape/3", "op": "Const", "attr": {"value": {"tensor": {"dtype": "DT_INT32", "tensorShape": {}}}, "dtype": {"type": "DT_INT32"}}}, {"name": "StatefulPartitionedCall/functional_113_1/efficientnetb2_1/block4d_se_reduce_1/convolution/ReadVariableOp", "op": "Const", "attr": {"value": {"tensor": {"dtype": "DT_FLOAT", "tensorShape": {"dim": [{"size": "1"}, {"size": "1"}, {"size": "528"}, {"size": "22"}]}}}, "dtype": {"type": "DT_FLOAT"}}}, {"name": "StatefulPartitionedCall/functional_113_1/efficientnetb2_1/block4d_se_reduce_1/Squeeze", "op": "Const", "attr": {"value": {"tensor": {"dtype": "DT_FLOAT", "tensorShape": {"dim": [{"size": "22"}]}}}, "dtype": {"type": "DT_FLOAT"}}}, {"name": "StatefulPartitionedCall/functional_113_1/efficientnetb2_1/block4d_se_expand_1/convolution/ReadVariableOp", "op": "Const", "attr": {"value": {"tensor": {"dtype": "DT_FLOAT", "tensorShape": {"dim": [{"size": "1"}, {"size": "1"}, {"size": "22"}, {"size": "528"}]}}}, "dtype": {"type": "DT_FLOAT"}}}, {"name": "StatefulPartitionedCall/functional_113_1/efficientnetb2_1/block4d_se_expand_1/Squeeze", "op": "Const", "attr": {"value": {"tensor": {"dtype": "DT_FLOAT", "tensorShape": {"dim": [{"size": "528"}]}}}, "dtype": {"type": "DT_FLOAT"}}}, {"name": "StatefulPartitionedCall/functional_113_1/efficientnetb2_1/block4d_project_conv_1/convolution/merged_input", "op": "Const", "attr": {"value": {"tensor": {"dtype": "DT_FLOAT", "tensorShape": {"dim": [{"size": "1"}, {"size": "1"}, {"size": "528"}, {"size": "88"}]}}}, "dtype": {"type": "DT_FLOAT"}}}, {"name": "StatefulPartitionedCall/functional_113_1/efficientnetb2_1/block4c_project_bn_1/batchnorm/sub", "op": "Const", "attr": {"value": {"tensor": {"dtype": "DT_FLOAT", "tensorShape": {"dim": [{"size": "1"}, {"size": "1"}, {"size": "1"}, {"size": "88"}]}}}, "dtype": {"type": "DT_FLOAT"}}}, {"name": "StatefulPartitionedCall/functional_113_1/efficientnetb2_1/block4c_expand_conv_1/convolution/merged_input", "op": "Const", "attr": {"value": {"tensor": {"dtype": "DT_FLOAT", "tensorShape": {"dim": [{"size": "1"}, {"size": "1"}, {"size": "88"}, {"size": "528"}]}}}, "dtype": {"type": "DT_FLOAT"}}}, {"name": "StatefulPartitionedCall/functional_113_1/efficientnetb2_1/block4c_expand_bn_1/batchnorm/sub", "op": "Const", "attr": {"value": {"tensor": {"dtype": "DT_FLOAT", "tensorShape": {"dim": [{"size": "1"}, {"size": "1"}, {"size": "1"}, {"size": "528"}]}}}, "dtype": {"type": "DT_FLOAT"}}}, {"name": "StatefulPartitionedCall/functional_113_1/efficientnetb2_1/block4c_dwconv_1/depthwise/ReadVariableOp", "op": "Const", "attr": {"value": {"tensor": {"dtype": "DT_FLOAT", "tensorShape": {"dim": [{"size": "3"}, {"size": "3"}, {"size": "528"}, {"size": "1"}]}}}, "dtype": {"type": "DT_FLOAT"}}}, {"name": "StatefulPartitionedCall/functional_113_1/efficientnetb2_1/block4c_bn_1/batchnorm/mul", "op": "Const", "attr": {"value": {"tensor": {"dtype": "DT_FLOAT", "tensorShape": {"dim": [{"size": "1"}, {"size": "1"}, {"size": "1"}, {"size": "528"}]}}}, "dtype": {"type": "DT_FLOAT"}}}, {"name": "StatefulPartitionedCall/functional_113_1/efficientnetb2_1/block4c_bn_1/batchnorm/sub", "op": "Const", "attr": {"value": {"tensor": {"dtype": "DT_FLOAT", "tensorShape": {"dim": [{"size": "1"}, {"size": "1"}, {"size": "1"}, {"size": "528"}]}}}, "dtype": {"type": "DT_FLOAT"}}}, {"name": "StatefulPartitionedCall/functional_113_1/efficientnetb2_1/block4c_se_squeeze_1/Mean/reduction_indices", "op": "Const", "attr": {"value": {"tensor": {"dtype": "DT_INT32", "tensorShape": {"dim": [{"size": "2"}]}}}, "dtype": {"type": "DT_INT32"}}}, {"name": "StatefulPartitionedCall/functional_113_1/efficientnetb2_1/block4c_se_reshape_1/strided_slice/stack", "op": "Const", "attr": {"value": {"tensor": {"dtype": "DT_INT32", "tensorShape": {"dim": [{"size": "1"}]}}}, "dtype": {"type": "DT_INT32"}}}, {"name": "StatefulPartitionedCall/functional_113_1/efficientnetb2_1/block4c_se_reshape_1/strided_slice/stack_1", "op": "Const", "attr": {"value": {"tensor": {"dtype": "DT_INT32", "tensorShape": {"dim": [{"size": "1"}]}}}, "dtype": {"type": "DT_INT32"}}}, {"name": "StatefulPartitionedCall/functional_113_1/efficientnetb2_1/block4c_se_reshape_1/strided_slice/stack_2", "op": "Const", "attr": {"value": {"tensor": {"dtype": "DT_INT32", "tensorShape": {"dim": [{"size": "1"}]}}}, "dtype": {"type": "DT_INT32"}}}, {"name": "StatefulPartitionedCall/functional_113_1/efficientnetb2_1/block4c_se_reshape_1/Reshape/shape/1", "op": "Const", "attr": {"value": {"tensor": {"dtype": "DT_INT32", "tensorShape": {}}}, "dtype": {"type": "DT_INT32"}}}, {"name": "StatefulPartitionedCall/functional_113_1/efficientnetb2_1/block4c_se_reshape_1/Reshape/shape/2", "op": "Const", "attr": {"value": {"tensor": {"dtype": "DT_INT32", "tensorShape": {}}}, "dtype": {"type": "DT_INT32"}}}, {"name": "StatefulPartitionedCall/functional_113_1/efficientnetb2_1/block4c_se_reshape_1/Reshape/shape/3", "op": "Const", "attr": {"value": {"tensor": {"dtype": "DT_INT32", "tensorShape": {}}}, "dtype": {"type": "DT_INT32"}}}, {"name": "StatefulPartitionedCall/functional_113_1/efficientnetb2_1/block4c_se_reduce_1/convolution/ReadVariableOp", "op": "Const", "attr": {"value": {"tensor": {"dtype": "DT_FLOAT", "tensorShape": {"dim": [{"size": "1"}, {"size": "1"}, {"size": "528"}, {"size": "22"}]}}}, "dtype": {"type": "DT_FLOAT"}}}, {"name": "StatefulPartitionedCall/functional_113_1/efficientnetb2_1/block4c_se_reduce_1/Squeeze", "op": "Const", "attr": {"value": {"tensor": {"dtype": "DT_FLOAT", "tensorShape": {"dim": [{"size": "22"}]}}}, "dtype": {"type": "DT_FLOAT"}}}, {"name": "StatefulPartitionedCall/functional_113_1/efficientnetb2_1/block4c_se_expand_1/convolution/ReadVariableOp", "op": "Const", "attr": {"value": {"tensor": {"dtype": "DT_FLOAT", "tensorShape": {"dim": [{"size": "1"}, {"size": "1"}, {"size": "22"}, {"size": "528"}]}}}, "dtype": {"type": "DT_FLOAT"}}}, {"name": "StatefulPartitionedCall/functional_113_1/efficientnetb2_1/block4c_se_expand_1/Squeeze", "op": "Const", "attr": {"value": {"tensor": {"dtype": "DT_FLOAT", "tensorShape": {"dim": [{"size": "528"}]}}}, "dtype": {"type": "DT_FLOAT"}}}, {"name": "StatefulPartitionedCall/functional_113_1/efficientnetb2_1/block4c_project_conv_1/convolution/merged_input", "op": "Const", "attr": {"value": {"tensor": {"dtype": "DT_FLOAT", "tensorShape": {"dim": [{"size": "1"}, {"size": "1"}, {"size": "528"}, {"size": "88"}]}}}, "dtype": {"type": "DT_FLOAT"}}}, {"name": "StatefulPartitionedCall/functional_113_1/efficientnetb2_1/block4b_project_bn_1/batchnorm/sub", "op": "Const", "attr": {"value": {"tensor": {"dtype": "DT_FLOAT", "tensorShape": {"dim": [{"size": "1"}, {"size": "1"}, {"size": "1"}, {"size": "88"}]}}}, "dtype": {"type": "DT_FLOAT"}}}, {"name": "StatefulPartitionedCall/functional_113_1/efficientnetb2_1/block4b_expand_conv_1/convolution/merged_input", "op": "Const", "attr": {"value": {"tensor": {"dtype": "DT_FLOAT", "tensorShape": {"dim": [{"size": "1"}, {"size": "1"}, {"size": "88"}, {"size": "528"}]}}}, "dtype": {"type": "DT_FLOAT"}}}, {"name": "StatefulPartitionedCall/functional_113_1/efficientnetb2_1/block4b_expand_bn_1/batchnorm/sub", "op": "Const", "attr": {"value": {"tensor": {"dtype": "DT_FLOAT", "tensorShape": {"dim": [{"size": "1"}, {"size": "1"}, {"size": "1"}, {"size": "528"}]}}}, "dtype": {"type": "DT_FLOAT"}}}, {"name": "StatefulPartitionedCall/functional_113_1/efficientnetb2_1/block4b_dwconv_1/depthwise/ReadVariableOp", "op": "Const", "attr": {"value": {"tensor": {"dtype": "DT_FLOAT", "tensorShape": {"dim": [{"size": "3"}, {"size": "3"}, {"size": "528"}, {"size": "1"}]}}}, "dtype": {"type": "DT_FLOAT"}}}, {"name": "StatefulPartitionedCall/functional_113_1/efficientnetb2_1/block4b_bn_1/batchnorm/mul", "op": "Const", "attr": {"value": {"tensor": {"dtype": "DT_FLOAT", "tensorShape": {"dim": [{"size": "1"}, {"size": "1"}, {"size": "1"}, {"size": "528"}]}}}, "dtype": {"type": "DT_FLOAT"}}}, {"name": "StatefulPartitionedCall/functional_113_1/efficientnetb2_1/block4b_bn_1/batchnorm/sub", "op": "Const", "attr": {"value": {"tensor": {"dtype": "DT_FLOAT", "tensorShape": {"dim": [{"size": "1"}, {"size": "1"}, {"size": "1"}, {"size": "528"}]}}}, "dtype": {"type": "DT_FLOAT"}}}, {"name": "StatefulPartitionedCall/functional_113_1/efficientnetb2_1/block4b_se_squeeze_1/Mean/reduction_indices", "op": "Const", "attr": {"value": {"tensor": {"dtype": "DT_INT32", "tensorShape": {"dim": [{"size": "2"}]}}}, "dtype": {"type": "DT_INT32"}}}, {"name": "StatefulPartitionedCall/functional_113_1/efficientnetb2_1/block4b_se_reshape_1/strided_slice/stack", "op": "Const", "attr": {"value": {"tensor": {"dtype": "DT_INT32", "tensorShape": {"dim": [{"size": "1"}]}}}, "dtype": {"type": "DT_INT32"}}}, {"name": "StatefulPartitionedCall/functional_113_1/efficientnetb2_1/block4b_se_reshape_1/strided_slice/stack_1", "op": "Const", "attr": {"value": {"tensor": {"dtype": "DT_INT32", "tensorShape": {"dim": [{"size": "1"}]}}}, "dtype": {"type": "DT_INT32"}}}, {"name": "StatefulPartitionedCall/functional_113_1/efficientnetb2_1/block4b_se_reshape_1/strided_slice/stack_2", "op": "Const", "attr": {"value": {"tensor": {"dtype": "DT_INT32", "tensorShape": {"dim": [{"size": "1"}]}}}, "dtype": {"type": "DT_INT32"}}}, {"name": "StatefulPartitionedCall/functional_113_1/efficientnetb2_1/block4b_se_reshape_1/Reshape/shape/1", "op": "Const", "attr": {"value": {"tensor": {"dtype": "DT_INT32", "tensorShape": {}}}, "dtype": {"type": "DT_INT32"}}}, {"name": "StatefulPartitionedCall/functional_113_1/efficientnetb2_1/block4b_se_reshape_1/Reshape/shape/2", "op": "Const", "attr": {"value": {"tensor": {"dtype": "DT_INT32", "tensorShape": {}}}, "dtype": {"type": "DT_INT32"}}}, {"name": "StatefulPartitionedCall/functional_113_1/efficientnetb2_1/block4b_se_reshape_1/Reshape/shape/3", "op": "Const", "attr": {"value": {"tensor": {"dtype": "DT_INT32", "tensorShape": {}}}, "dtype": {"type": "DT_INT32"}}}, {"name": "StatefulPartitionedCall/functional_113_1/efficientnetb2_1/block4b_se_reduce_1/convolution/ReadVariableOp", "op": "Const", "attr": {"value": {"tensor": {"dtype": "DT_FLOAT", "tensorShape": {"dim": [{"size": "1"}, {"size": "1"}, {"size": "528"}, {"size": "22"}]}}}, "dtype": {"type": "DT_FLOAT"}}}, {"name": "StatefulPartitionedCall/functional_113_1/efficientnetb2_1/block4b_se_reduce_1/Squeeze", "op": "Const", "attr": {"value": {"tensor": {"dtype": "DT_FLOAT", "tensorShape": {"dim": [{"size": "22"}]}}}, "dtype": {"type": "DT_FLOAT"}}}, {"name": "StatefulPartitionedCall/functional_113_1/efficientnetb2_1/block4b_se_expand_1/convolution/ReadVariableOp", "op": "Const", "attr": {"value": {"tensor": {"dtype": "DT_FLOAT", "tensorShape": {"dim": [{"size": "1"}, {"size": "1"}, {"size": "22"}, {"size": "528"}]}}}, "dtype": {"type": "DT_FLOAT"}}}, {"name": "StatefulPartitionedCall/functional_113_1/efficientnetb2_1/block4b_se_expand_1/Squeeze", "op": "Const", "attr": {"value": {"tensor": {"dtype": "DT_FLOAT", "tensorShape": {"dim": [{"size": "528"}]}}}, "dtype": {"type": "DT_FLOAT"}}}, {"name": "StatefulPartitionedCall/functional_113_1/efficientnetb2_1/block4b_project_conv_1/convolution/merged_input", "op": "Const", "attr": {"value": {"tensor": {"dtype": "DT_FLOAT", "tensorShape": {"dim": [{"size": "1"}, {"size": "1"}, {"size": "528"}, {"size": "88"}]}}}, "dtype": {"type": "DT_FLOAT"}}}, {"name": "StatefulPartitionedCall/functional_113_1/efficientnetb2_1/block3c_project_bn_1/batchnorm/sub", "op": "Const", "attr": {"value": {"tensor": {"dtype": "DT_FLOAT", "tensorShape": {"dim": [{"size": "1"}, {"size": "1"}, {"size": "1"}, {"size": "48"}]}}}, "dtype": {"type": "DT_FLOAT"}}}, {"name": "StatefulPartitionedCall/functional_113_1/efficientnetb2_1/block3c_expand_conv_1/convolution/merged_input", "op": "Const", "attr": {"value": {"tensor": {"dtype": "DT_FLOAT", "tensorShape": {"dim": [{"size": "1"}, {"size": "1"}, {"size": "48"}, {"size": "288"}]}}}, "dtype": {"type": "DT_FLOAT"}}}, {"name": "StatefulPartitionedCall/functional_113_1/efficientnetb2_1/block3c_expand_bn_1/batchnorm/sub", "op": "Const", "attr": {"value": {"tensor": {"dtype": "DT_FLOAT", "tensorShape": {"dim": [{"size": "1"}, {"size": "1"}, {"size": "1"}, {"size": "288"}]}}}, "dtype": {"type": "DT_FLOAT"}}}, {"name": "StatefulPartitionedCall/functional_113_1/efficientnetb2_1/block3c_dwconv_1/depthwise/ReadVariableOp", "op": "Const", "attr": {"value": {"tensor": {"dtype": "DT_FLOAT", "tensorShape": {"dim": [{"size": "5"}, {"size": "5"}, {"size": "288"}, {"size": "1"}]}}}, "dtype": {"type": "DT_FLOAT"}}}, {"name": "StatefulPartitionedCall/functional_113_1/efficientnetb2_1/block3c_bn_1/batchnorm/mul", "op": "Const", "attr": {"value": {"tensor": {"dtype": "DT_FLOAT", "tensorShape": {"dim": [{"size": "1"}, {"size": "1"}, {"size": "1"}, {"size": "288"}]}}}, "dtype": {"type": "DT_FLOAT"}}}, {"name": "StatefulPartitionedCall/functional_113_1/efficientnetb2_1/block3c_bn_1/batchnorm/sub", "op": "Const", "attr": {"value": {"tensor": {"dtype": "DT_FLOAT", "tensorShape": {"dim": [{"size": "1"}, {"size": "1"}, {"size": "1"}, {"size": "288"}]}}}, "dtype": {"type": "DT_FLOAT"}}}, {"name": "StatefulPartitionedCall/functional_113_1/efficientnetb2_1/block3c_se_squeeze_1/Mean/reduction_indices", "op": "Const", "attr": {"value": {"tensor": {"dtype": "DT_INT32", "tensorShape": {"dim": [{"size": "2"}]}}}, "dtype": {"type": "DT_INT32"}}}, {"name": "StatefulPartitionedCall/functional_113_1/efficientnetb2_1/block3c_se_reshape_1/strided_slice/stack", "op": "Const", "attr": {"value": {"tensor": {"dtype": "DT_INT32", "tensorShape": {"dim": [{"size": "1"}]}}}, "dtype": {"type": "DT_INT32"}}}, {"name": "StatefulPartitionedCall/functional_113_1/efficientnetb2_1/block3c_se_reshape_1/strided_slice/stack_1", "op": "Const", "attr": {"value": {"tensor": {"dtype": "DT_INT32", "tensorShape": {"dim": [{"size": "1"}]}}}, "dtype": {"type": "DT_INT32"}}}, {"name": "StatefulPartitionedCall/functional_113_1/efficientnetb2_1/block3c_se_reshape_1/strided_slice/stack_2", "op": "Const", "attr": {"value": {"tensor": {"dtype": "DT_INT32", "tensorShape": {"dim": [{"size": "1"}]}}}, "dtype": {"type": "DT_INT32"}}}, {"name": "StatefulPartitionedCall/functional_113_1/efficientnetb2_1/block3c_se_reshape_1/Reshape/shape/1", "op": "Const", "attr": {"value": {"tensor": {"dtype": "DT_INT32", "tensorShape": {}}}, "dtype": {"type": "DT_INT32"}}}, {"name": "StatefulPartitionedCall/functional_113_1/efficientnetb2_1/block3c_se_reshape_1/Reshape/shape/2", "op": "Const", "attr": {"value": {"tensor": {"dtype": "DT_INT32", "tensorShape": {}}}, "dtype": {"type": "DT_INT32"}}}, {"name": "StatefulPartitionedCall/functional_113_1/efficientnetb2_1/block3c_se_reshape_1/Reshape/shape/3", "op": "Const", "attr": {"value": {"tensor": {"dtype": "DT_INT32", "tensorShape": {}}}, "dtype": {"type": "DT_INT32"}}}, {"name": "StatefulPartitionedCall/functional_113_1/efficientnetb2_1/block3c_se_reduce_1/convolution/ReadVariableOp", "op": "Const", "attr": {"value": {"tensor": {"dtype": "DT_FLOAT", "tensorShape": {"dim": [{"size": "1"}, {"size": "1"}, {"size": "288"}, {"size": "12"}]}}}, "dtype": {"type": "DT_FLOAT"}}}, {"name": "StatefulPartitionedCall/functional_113_1/efficientnetb2_1/block3c_se_reduce_1/Squeeze", "op": "Const", "attr": {"value": {"tensor": {"dtype": "DT_FLOAT", "tensorShape": {"dim": [{"size": "12"}]}}}, "dtype": {"type": "DT_FLOAT"}}}, {"name": "StatefulPartitionedCall/functional_113_1/efficientnetb2_1/block3c_se_expand_1/convolution/ReadVariableOp", "op": "Const", "attr": {"value": {"tensor": {"dtype": "DT_FLOAT", "tensorShape": {"dim": [{"size": "1"}, {"size": "1"}, {"size": "12"}, {"size": "288"}]}}}, "dtype": {"type": "DT_FLOAT"}}}, {"name": "StatefulPartitionedCall/functional_113_1/efficientnetb2_1/block3c_se_expand_1/Squeeze", "op": "Const", "attr": {"value": {"tensor": {"dtype": "DT_FLOAT", "tensorShape": {"dim": [{"size": "288"}]}}}, "dtype": {"type": "DT_FLOAT"}}}, {"name": "StatefulPartitionedCall/functional_113_1/efficientnetb2_1/block3c_project_conv_1/convolution/merged_input", "op": "Const", "attr": {"value": {"tensor": {"dtype": "DT_FLOAT", "tensorShape": {"dim": [{"size": "1"}, {"size": "1"}, {"size": "288"}, {"size": "48"}]}}}, "dtype": {"type": "DT_FLOAT"}}}, {"name": "StatefulPartitionedCall/functional_113_1/efficientnetb2_1/block3b_project_bn_1/batchnorm/sub", "op": "Const", "attr": {"value": {"tensor": {"dtype": "DT_FLOAT", "tensorShape": {"dim": [{"size": "1"}, {"size": "1"}, {"size": "1"}, {"size": "48"}]}}}, "dtype": {"type": "DT_FLOAT"}}}, {"name": "StatefulPartitionedCall/functional_113_1/efficientnetb2_1/block3b_expand_conv_1/convolution/merged_input", "op": "Const", "attr": {"value": {"tensor": {"dtype": "DT_FLOAT", "tensorShape": {"dim": [{"size": "1"}, {"size": "1"}, {"size": "48"}, {"size": "288"}]}}}, "dtype": {"type": "DT_FLOAT"}}}, {"name": "StatefulPartitionedCall/functional_113_1/efficientnetb2_1/block3b_expand_bn_1/batchnorm/sub", "op": "Const", "attr": {"value": {"tensor": {"dtype": "DT_FLOAT", "tensorShape": {"dim": [{"size": "1"}, {"size": "1"}, {"size": "1"}, {"size": "288"}]}}}, "dtype": {"type": "DT_FLOAT"}}}, {"name": "StatefulPartitionedCall/functional_113_1/efficientnetb2_1/block3b_dwconv_1/depthwise/ReadVariableOp", "op": "Const", "attr": {"value": {"tensor": {"dtype": "DT_FLOAT", "tensorShape": {"dim": [{"size": "5"}, {"size": "5"}, {"size": "288"}, {"size": "1"}]}}}, "dtype": {"type": "DT_FLOAT"}}}, {"name": "StatefulPartitionedCall/functional_113_1/efficientnetb2_1/block3b_bn_1/batchnorm/mul", "op": "Const", "attr": {"value": {"tensor": {"dtype": "DT_FLOAT", "tensorShape": {"dim": [{"size": "1"}, {"size": "1"}, {"size": "1"}, {"size": "288"}]}}}, "dtype": {"type": "DT_FLOAT"}}}, {"name": "StatefulPartitionedCall/functional_113_1/efficientnetb2_1/block3b_bn_1/batchnorm/sub", "op": "Const", "attr": {"value": {"tensor": {"dtype": "DT_FLOAT", "tensorShape": {"dim": [{"size": "1"}, {"size": "1"}, {"size": "1"}, {"size": "288"}]}}}, "dtype": {"type": "DT_FLOAT"}}}, {"name": "StatefulPartitionedCall/functional_113_1/efficientnetb2_1/block3b_se_squeeze_1/Mean/reduction_indices", "op": "Const", "attr": {"value": {"tensor": {"dtype": "DT_INT32", "tensorShape": {"dim": [{"size": "2"}]}}}, "dtype": {"type": "DT_INT32"}}}, {"name": "StatefulPartitionedCall/functional_113_1/efficientnetb2_1/block3b_se_reshape_1/strided_slice/stack", "op": "Const", "attr": {"value": {"tensor": {"dtype": "DT_INT32", "tensorShape": {"dim": [{"size": "1"}]}}}, "dtype": {"type": "DT_INT32"}}}, {"name": "StatefulPartitionedCall/functional_113_1/efficientnetb2_1/block3b_se_reshape_1/strided_slice/stack_1", "op": "Const", "attr": {"value": {"tensor": {"dtype": "DT_INT32", "tensorShape": {"dim": [{"size": "1"}]}}}, "dtype": {"type": "DT_INT32"}}}, {"name": "StatefulPartitionedCall/functional_113_1/efficientnetb2_1/block3b_se_reshape_1/strided_slice/stack_2", "op": "Const", "attr": {"value": {"tensor": {"dtype": "DT_INT32", "tensorShape": {"dim": [{"size": "1"}]}}}, "dtype": {"type": "DT_INT32"}}}, {"name": "StatefulPartitionedCall/functional_113_1/efficientnetb2_1/block3b_se_reshape_1/Reshape/shape/1", "op": "Const", "attr": {"value": {"tensor": {"dtype": "DT_INT32", "tensorShape": {}}}, "dtype": {"type": "DT_INT32"}}}, {"name": "StatefulPartitionedCall/functional_113_1/efficientnetb2_1/block3b_se_reshape_1/Reshape/shape/2", "op": "Const", "attr": {"value": {"tensor": {"dtype": "DT_INT32", "tensorShape": {}}}, "dtype": {"type": "DT_INT32"}}}, {"name": "StatefulPartitionedCall/functional_113_1/efficientnetb2_1/block3b_se_reshape_1/Reshape/shape/3", "op": "Const", "attr": {"value": {"tensor": {"dtype": "DT_INT32", "tensorShape": {}}}, "dtype": {"type": "DT_INT32"}}}, {"name": "StatefulPartitionedCall/functional_113_1/efficientnetb2_1/block3b_se_reduce_1/convolution/ReadVariableOp", "op": "Const", "attr": {"value": {"tensor": {"dtype": "DT_FLOAT", "tensorShape": {"dim": [{"size": "1"}, {"size": "1"}, {"size": "288"}, {"size": "12"}]}}}, "dtype": {"type": "DT_FLOAT"}}}, {"name": "StatefulPartitionedCall/functional_113_1/efficientnetb2_1/block3b_se_reduce_1/Squeeze", "op": "Const", "attr": {"value": {"tensor": {"dtype": "DT_FLOAT", "tensorShape": {"dim": [{"size": "12"}]}}}, "dtype": {"type": "DT_FLOAT"}}}, {"name": "StatefulPartitionedCall/functional_113_1/efficientnetb2_1/block3b_se_expand_1/convolution/ReadVariableOp", "op": "Const", "attr": {"value": {"tensor": {"dtype": "DT_FLOAT", "tensorShape": {"dim": [{"size": "1"}, {"size": "1"}, {"size": "12"}, {"size": "288"}]}}}, "dtype": {"type": "DT_FLOAT"}}}, {"name": "StatefulPartitionedCall/functional_113_1/efficientnetb2_1/block3b_se_expand_1/Squeeze", "op": "Const", "attr": {"value": {"tensor": {"dtype": "DT_FLOAT", "tensorShape": {"dim": [{"size": "288"}]}}}, "dtype": {"type": "DT_FLOAT"}}}, {"name": "StatefulPartitionedCall/functional_113_1/efficientnetb2_1/block3b_project_conv_1/convolution/merged_input", "op": "Const", "attr": {"value": {"tensor": {"dtype": "DT_FLOAT", "tensorShape": {"dim": [{"size": "1"}, {"size": "1"}, {"size": "288"}, {"size": "48"}]}}}, "dtype": {"type": "DT_FLOAT"}}}, {"name": "StatefulPartitionedCall/functional_113_1/efficientnetb2_1/block2c_project_bn_1/batchnorm/sub", "op": "Const", "attr": {"value": {"tensor": {"dtype": "DT_FLOAT", "tensorShape": {"dim": [{"size": "1"}, {"size": "1"}, {"size": "1"}, {"size": "24"}]}}}, "dtype": {"type": "DT_FLOAT"}}}, {"name": "StatefulPartitionedCall/functional_113_1/efficientnetb2_1/block2c_expand_conv_1/convolution/merged_input", "op": "Const", "attr": {"value": {"tensor": {"dtype": "DT_FLOAT", "tensorShape": {"dim": [{"size": "1"}, {"size": "1"}, {"size": "24"}, {"size": "144"}]}}}, "dtype": {"type": "DT_FLOAT"}}}, {"name": "StatefulPartitionedCall/functional_113_1/efficientnetb2_1/block2c_expand_bn_1/batchnorm/sub", "op": "Const", "attr": {"value": {"tensor": {"dtype": "DT_FLOAT", "tensorShape": {"dim": [{"size": "1"}, {"size": "1"}, {"size": "1"}, {"size": "144"}]}}}, "dtype": {"type": "DT_FLOAT"}}}, {"name": "StatefulPartitionedCall/functional_113_1/efficientnetb2_1/block2c_dwconv_1/depthwise/ReadVariableOp", "op": "Const", "attr": {"value": {"tensor": {"dtype": "DT_FLOAT", "tensorShape": {"dim": [{"size": "3"}, {"size": "3"}, {"size": "144"}, {"size": "1"}]}}}, "dtype": {"type": "DT_FLOAT"}}}, {"name": "StatefulPartitionedCall/functional_113_1/efficientnetb2_1/block2c_bn_1/batchnorm/mul", "op": "Const", "attr": {"value": {"tensor": {"dtype": "DT_FLOAT", "tensorShape": {"dim": [{"size": "1"}, {"size": "1"}, {"size": "1"}, {"size": "144"}]}}}, "dtype": {"type": "DT_FLOAT"}}}, {"name": "StatefulPartitionedCall/functional_113_1/efficientnetb2_1/block2c_bn_1/batchnorm/sub", "op": "Const", "attr": {"value": {"tensor": {"dtype": "DT_FLOAT", "tensorShape": {"dim": [{"size": "1"}, {"size": "1"}, {"size": "1"}, {"size": "144"}]}}}, "dtype": {"type": "DT_FLOAT"}}}, {"name": "StatefulPartitionedCall/functional_113_1/efficientnetb2_1/block2c_se_squeeze_1/Mean/reduction_indices", "op": "Const", "attr": {"value": {"tensor": {"dtype": "DT_INT32", "tensorShape": {"dim": [{"size": "2"}]}}}, "dtype": {"type": "DT_INT32"}}}, {"name": "StatefulPartitionedCall/functional_113_1/efficientnetb2_1/block2c_se_reshape_1/strided_slice/stack", "op": "Const", "attr": {"value": {"tensor": {"dtype": "DT_INT32", "tensorShape": {"dim": [{"size": "1"}]}}}, "dtype": {"type": "DT_INT32"}}}, {"name": "StatefulPartitionedCall/functional_113_1/efficientnetb2_1/block2c_se_reshape_1/strided_slice/stack_1", "op": "Const", "attr": {"value": {"tensor": {"dtype": "DT_INT32", "tensorShape": {"dim": [{"size": "1"}]}}}, "dtype": {"type": "DT_INT32"}}}, {"name": "StatefulPartitionedCall/functional_113_1/efficientnetb2_1/block2c_se_reshape_1/strided_slice/stack_2", "op": "Const", "attr": {"value": {"tensor": {"dtype": "DT_INT32", "tensorShape": {"dim": [{"size": "1"}]}}}, "dtype": {"type": "DT_INT32"}}}, {"name": "StatefulPartitionedCall/functional_113_1/efficientnetb2_1/block2c_se_reshape_1/Reshape/shape/1", "op": "Const", "attr": {"value": {"tensor": {"dtype": "DT_INT32", "tensorShape": {}}}, "dtype": {"type": "DT_INT32"}}}, {"name": "StatefulPartitionedCall/functional_113_1/efficientnetb2_1/block2c_se_reshape_1/Reshape/shape/2", "op": "Const", "attr": {"value": {"tensor": {"dtype": "DT_INT32", "tensorShape": {}}}, "dtype": {"type": "DT_INT32"}}}, {"name": "StatefulPartitionedCall/functional_113_1/efficientnetb2_1/block2c_se_reshape_1/Reshape/shape/3", "op": "Const", "attr": {"value": {"tensor": {"dtype": "DT_INT32", "tensorShape": {}}}, "dtype": {"type": "DT_INT32"}}}, {"name": "StatefulPartitionedCall/functional_113_1/efficientnetb2_1/block2c_se_reduce_1/convolution/ReadVariableOp", "op": "Const", "attr": {"value": {"tensor": {"dtype": "DT_FLOAT", "tensorShape": {"dim": [{"size": "1"}, {"size": "1"}, {"size": "144"}, {"size": "6"}]}}}, "dtype": {"type": "DT_FLOAT"}}}, {"name": "StatefulPartitionedCall/functional_113_1/efficientnetb2_1/block2c_se_reduce_1/Squeeze", "op": "Const", "attr": {"value": {"tensor": {"dtype": "DT_FLOAT", "tensorShape": {"dim": [{"size": "6"}]}}}, "dtype": {"type": "DT_FLOAT"}}}, {"name": "StatefulPartitionedCall/functional_113_1/efficientnetb2_1/block2c_se_expand_1/convolution/ReadVariableOp", "op": "Const", "attr": {"value": {"tensor": {"dtype": "DT_FLOAT", "tensorShape": {"dim": [{"size": "1"}, {"size": "1"}, {"size": "6"}, {"size": "144"}]}}}, "dtype": {"type": "DT_FLOAT"}}}, {"name": "StatefulPartitionedCall/functional_113_1/efficientnetb2_1/block2c_se_expand_1/Squeeze", "op": "Const", "attr": {"value": {"tensor": {"dtype": "DT_FLOAT", "tensorShape": {"dim": [{"size": "144"}]}}}, "dtype": {"type": "DT_FLOAT"}}}, {"name": "StatefulPartitionedCall/functional_113_1/efficientnetb2_1/block2c_project_conv_1/convolution/merged_input", "op": "Const", "attr": {"value": {"tensor": {"dtype": "DT_FLOAT", "tensorShape": {"dim": [{"size": "1"}, {"size": "1"}, {"size": "144"}, {"size": "24"}]}}}, "dtype": {"type": "DT_FLOAT"}}}, {"name": "StatefulPartitionedCall/functional_113_1/efficientnetb2_1/block2b_project_bn_1/batchnorm/sub", "op": "Const", "attr": {"value": {"tensor": {"dtype": "DT_FLOAT", "tensorShape": {"dim": [{"size": "1"}, {"size": "1"}, {"size": "1"}, {"size": "24"}]}}}, "dtype": {"type": "DT_FLOAT"}}}, {"name": "StatefulPartitionedCall/functional_113_1/efficientnetb2_1/block2b_expand_conv_1/convolution/merged_input", "op": "Const", "attr": {"value": {"tensor": {"dtype": "DT_FLOAT", "tensorShape": {"dim": [{"size": "1"}, {"size": "1"}, {"size": "24"}, {"size": "144"}]}}}, "dtype": {"type": "DT_FLOAT"}}}, {"name": "StatefulPartitionedCall/functional_113_1/efficientnetb2_1/block2b_expand_bn_1/batchnorm/sub", "op": "Const", "attr": {"value": {"tensor": {"dtype": "DT_FLOAT", "tensorShape": {"dim": [{"size": "1"}, {"size": "1"}, {"size": "1"}, {"size": "144"}]}}}, "dtype": {"type": "DT_FLOAT"}}}, {"name": "StatefulPartitionedCall/functional_113_1/efficientnetb2_1/block2b_dwconv_1/depthwise/ReadVariableOp", "op": "Const", "attr": {"value": {"tensor": {"dtype": "DT_FLOAT", "tensorShape": {"dim": [{"size": "3"}, {"size": "3"}, {"size": "144"}, {"size": "1"}]}}}, "dtype": {"type": "DT_FLOAT"}}}, {"name": "StatefulPartitionedCall/functional_113_1/efficientnetb2_1/block2b_bn_1/batchnorm/mul", "op": "Const", "attr": {"value": {"tensor": {"dtype": "DT_FLOAT", "tensorShape": {"dim": [{"size": "1"}, {"size": "1"}, {"size": "1"}, {"size": "144"}]}}}, "dtype": {"type": "DT_FLOAT"}}}, {"name": "StatefulPartitionedCall/functional_113_1/efficientnetb2_1/block2b_bn_1/batchnorm/sub", "op": "Const", "attr": {"value": {"tensor": {"dtype": "DT_FLOAT", "tensorShape": {"dim": [{"size": "1"}, {"size": "1"}, {"size": "1"}, {"size": "144"}]}}}, "dtype": {"type": "DT_FLOAT"}}}, {"name": "StatefulPartitionedCall/functional_113_1/efficientnetb2_1/block2b_se_squeeze_1/Mean/reduction_indices", "op": "Const", "attr": {"value": {"tensor": {"dtype": "DT_INT32", "tensorShape": {"dim": [{"size": "2"}]}}}, "dtype": {"type": "DT_INT32"}}}, {"name": "StatefulPartitionedCall/functional_113_1/efficientnetb2_1/block2b_se_reshape_1/strided_slice/stack", "op": "Const", "attr": {"value": {"tensor": {"dtype": "DT_INT32", "tensorShape": {"dim": [{"size": "1"}]}}}, "dtype": {"type": "DT_INT32"}}}, {"name": "StatefulPartitionedCall/functional_113_1/efficientnetb2_1/block2b_se_reshape_1/strided_slice/stack_1", "op": "Const", "attr": {"value": {"tensor": {"dtype": "DT_INT32", "tensorShape": {"dim": [{"size": "1"}]}}}, "dtype": {"type": "DT_INT32"}}}, {"name": "StatefulPartitionedCall/functional_113_1/efficientnetb2_1/block2b_se_reshape_1/strided_slice/stack_2", "op": "Const", "attr": {"value": {"tensor": {"dtype": "DT_INT32", "tensorShape": {"dim": [{"size": "1"}]}}}, "dtype": {"type": "DT_INT32"}}}, {"name": "StatefulPartitionedCall/functional_113_1/efficientnetb2_1/block2b_se_reshape_1/Reshape/shape/1", "op": "Const", "attr": {"value": {"tensor": {"dtype": "DT_INT32", "tensorShape": {}}}, "dtype": {"type": "DT_INT32"}}}, {"name": "StatefulPartitionedCall/functional_113_1/efficientnetb2_1/block2b_se_reshape_1/Reshape/shape/2", "op": "Const", "attr": {"value": {"tensor": {"dtype": "DT_INT32", "tensorShape": {}}}, "dtype": {"type": "DT_INT32"}}}, {"name": "StatefulPartitionedCall/functional_113_1/efficientnetb2_1/block2b_se_reshape_1/Reshape/shape/3", "op": "Const", "attr": {"value": {"tensor": {"dtype": "DT_INT32", "tensorShape": {}}}, "dtype": {"type": "DT_INT32"}}}, {"name": "StatefulPartitionedCall/functional_113_1/efficientnetb2_1/block2b_se_reduce_1/convolution/ReadVariableOp", "op": "Const", "attr": {"value": {"tensor": {"dtype": "DT_FLOAT", "tensorShape": {"dim": [{"size": "1"}, {"size": "1"}, {"size": "144"}, {"size": "6"}]}}}, "dtype": {"type": "DT_FLOAT"}}}, {"name": "StatefulPartitionedCall/functional_113_1/efficientnetb2_1/block2b_se_reduce_1/Squeeze", "op": "Const", "attr": {"value": {"tensor": {"dtype": "DT_FLOAT", "tensorShape": {"dim": [{"size": "6"}]}}}, "dtype": {"type": "DT_FLOAT"}}}, {"name": "StatefulPartitionedCall/functional_113_1/efficientnetb2_1/block2b_se_expand_1/convolution/ReadVariableOp", "op": "Const", "attr": {"value": {"tensor": {"dtype": "DT_FLOAT", "tensorShape": {"dim": [{"size": "1"}, {"size": "1"}, {"size": "6"}, {"size": "144"}]}}}, "dtype": {"type": "DT_FLOAT"}}}, {"name": "StatefulPartitionedCall/functional_113_1/efficientnetb2_1/block2b_se_expand_1/Squeeze", "op": "Const", "attr": {"value": {"tensor": {"dtype": "DT_FLOAT", "tensorShape": {"dim": [{"size": "144"}]}}}, "dtype": {"type": "DT_FLOAT"}}}, {"name": "StatefulPartitionedCall/functional_113_1/efficientnetb2_1/block2b_project_conv_1/convolution/merged_input", "op": "Const", "attr": {"value": {"tensor": {"dtype": "DT_FLOAT", "tensorShape": {"dim": [{"size": "1"}, {"size": "1"}, {"size": "144"}, {"size": "24"}]}}}, "dtype": {"type": "DT_FLOAT"}}}, {"name": "StatefulPartitionedCall/functional_113_1/efficientnetb2_1/block1b_project_bn_1/batchnorm/sub", "op": "Const", "attr": {"value": {"tensor": {"dtype": "DT_FLOAT", "tensorShape": {"dim": [{"size": "1"}, {"size": "1"}, {"size": "1"}, {"size": "16"}]}}}, "dtype": {"type": "DT_FLOAT"}}}, {"name": "StatefulPartitionedCall/functional_113_1/efficientnetb2_1/block1b_dwconv_1/depthwise/ReadVariableOp", "op": "Const", "attr": {"value": {"tensor": {"dtype": "DT_FLOAT", "tensorShape": {"dim": [{"size": "3"}, {"size": "3"}, {"size": "16"}, {"size": "1"}]}}}, "dtype": {"type": "DT_FLOAT"}}}, {"name": "StatefulPartitionedCall/functional_113_1/efficientnetb2_1/block1b_bn_1/batchnorm/mul", "op": "Const", "attr": {"value": {"tensor": {"dtype": "DT_FLOAT", "tensorShape": {"dim": [{"size": "1"}, {"size": "1"}, {"size": "1"}, {"size": "16"}]}}}, "dtype": {"type": "DT_FLOAT"}}}, {"name": "StatefulPartitionedCall/functional_113_1/efficientnetb2_1/block1b_bn_1/batchnorm/sub", "op": "Const", "attr": {"value": {"tensor": {"dtype": "DT_FLOAT", "tensorShape": {"dim": [{"size": "1"}, {"size": "1"}, {"size": "1"}, {"size": "16"}]}}}, "dtype": {"type": "DT_FLOAT"}}}, {"name": "StatefulPartitionedCall/functional_113_1/efficientnetb2_1/block1b_se_squeeze_1/Mean/reduction_indices", "op": "Const", "attr": {"value": {"tensor": {"dtype": "DT_INT32", "tensorShape": {"dim": [{"size": "2"}]}}}, "dtype": {"type": "DT_INT32"}}}, {"name": "StatefulPartitionedCall/functional_113_1/efficientnetb2_1/block1b_se_reshape_1/strided_slice/stack", "op": "Const", "attr": {"value": {"tensor": {"dtype": "DT_INT32", "tensorShape": {"dim": [{"size": "1"}]}}}, "dtype": {"type": "DT_INT32"}}}, {"name": "StatefulPartitionedCall/functional_113_1/efficientnetb2_1/block1b_se_reshape_1/strided_slice/stack_1", "op": "Const", "attr": {"value": {"tensor": {"dtype": "DT_INT32", "tensorShape": {"dim": [{"size": "1"}]}}}, "dtype": {"type": "DT_INT32"}}}, {"name": "StatefulPartitionedCall/functional_113_1/efficientnetb2_1/block1b_se_reshape_1/strided_slice/stack_2", "op": "Const", "attr": {"value": {"tensor": {"dtype": "DT_INT32", "tensorShape": {"dim": [{"size": "1"}]}}}, "dtype": {"type": "DT_INT32"}}}, {"name": "StatefulPartitionedCall/functional_113_1/efficientnetb2_1/block1b_se_reshape_1/Reshape/shape/1", "op": "Const", "attr": {"value": {"tensor": {"dtype": "DT_INT32", "tensorShape": {}}}, "dtype": {"type": "DT_INT32"}}}, {"name": "StatefulPartitionedCall/functional_113_1/efficientnetb2_1/block1b_se_reshape_1/Reshape/shape/2", "op": "Const", "attr": {"value": {"tensor": {"dtype": "DT_INT32", "tensorShape": {}}}, "dtype": {"type": "DT_INT32"}}}, {"name": "StatefulPartitionedCall/functional_113_1/efficientnetb2_1/block1b_se_reshape_1/Reshape/shape/3", "op": "Const", "attr": {"value": {"tensor": {"dtype": "DT_INT32", "tensorShape": {}}}, "dtype": {"type": "DT_INT32"}}}, {"name": "StatefulPartitionedCall/functional_113_1/efficientnetb2_1/block1b_se_reduce_1/convolution/ReadVariableOp", "op": "Const", "attr": {"value": {"tensor": {"dtype": "DT_FLOAT", "tensorShape": {"dim": [{"size": "1"}, {"size": "1"}, {"size": "16"}, {"size": "4"}]}}}, "dtype": {"type": "DT_FLOAT"}}}, {"name": "StatefulPartitionedCall/functional_113_1/efficientnetb2_1/block1b_se_reduce_1/Squeeze", "op": "Const", "attr": {"value": {"tensor": {"dtype": "DT_FLOAT", "tensorShape": {"dim": [{"size": "4"}]}}}, "dtype": {"type": "DT_FLOAT"}}}, {"name": "StatefulPartitionedCall/functional_113_1/efficientnetb2_1/block1b_se_expand_1/convolution/ReadVariableOp", "op": "Const", "attr": {"value": {"tensor": {"dtype": "DT_FLOAT", "tensorShape": {"dim": [{"size": "1"}, {"size": "1"}, {"size": "4"}, {"size": "16"}]}}}, "dtype": {"type": "DT_FLOAT"}}}, {"name": "StatefulPartitionedCall/functional_113_1/efficientnetb2_1/block1b_se_expand_1/Squeeze", "op": "Const", "attr": {"value": {"tensor": {"dtype": "DT_FLOAT", "tensorShape": {"dim": [{"size": "16"}]}}}, "dtype": {"type": "DT_FLOAT"}}}, {"name": "StatefulPartitionedCall/functional_113_1/efficientnetb2_1/block1b_project_conv_1/convolution/merged_input", "op": "Const", "attr": {"value": {"tensor": {"dtype": "DT_FLOAT", "tensorShape": {"dim": [{"size": "1"}, {"size": "1"}, {"size": "16"}, {"size": "16"}]}}}, "dtype": {"type": "DT_FLOAT"}}}, {"name": "StatefulPartitionedCall/functional_113_1/efficientnetb2_1/rescaling_1/Cast/x", "op": "Const", "attr": {"value": {"tensor": {"dtype": "DT_FLOAT", "tensorShape": {}}}, "dtype": {"type": "DT_FLOAT"}}}, {"name": "StatefulPartitionedCall/functional_113_1/efficientnetb2_1/rescaling_1/add", "op": "Const", "attr": {"value": {"tensor": {"dtype": "DT_FLOAT", "tensorShape": {"dim": [{"size": "1"}, {"size": "1"}, {"size": "1"}, {"size": "3"}]}}}, "dtype": {"type": "DT_FLOAT"}}}, {"name": "StatefulPartitionedCall/functional_113_1/efficientnetb2_1/normalization_1/truediv", "op": "Const", "attr": {"value": {"tensor": {"dtype": "DT_FLOAT", "tensorShape": {"dim": [{"size": "1"}, {"size": "1"}, {"size": "1"}, {"size": "3"}]}}}, "dtype": {"type": "DT_FLOAT"}}}, {"name": "StatefulPartitionedCall/functional_113_1/efficientnetb2_1/rescaling_1_2/Cast_1/x", "op": "Const", "attr": {"value": {"tensor": {"dtype": "DT_FLOAT", "tensorShape": {}}}, "dtype": {"type": "DT_FLOAT"}}}, {"name": "StatefulPartitionedCall/functional_113_1/efficientnetb2_1/stem_conv_pad_1/Const", "op": "Const", "attr": {"value": {"tensor": {"dtype": "DT_INT32", "tensorShape": {"dim": [{"size": "4"}, {"size": "2"}]}}}, "dtype": {"type": "DT_INT32"}}}, {"name": "StatefulPartitionedCall/functional_113_1/efficientnetb2_1/stem_conv_1/convolution/merged_input", "op": "Const", "attr": {"value": {"tensor": {"dtype": "DT_FLOAT", "tensorShape": {"dim": [{"size": "3"}, {"size": "3"}, {"size": "3"}, {"size": "32"}]}}}, "dtype": {"type": "DT_FLOAT"}}}, {"name": "StatefulPartitionedCall/functional_113_1/efficientnetb2_1/stem_bn_1/batchnorm/sub", "op": "Const", "attr": {"value": {"tensor": {"dtype": "DT_FLOAT", "tensorShape": {"dim": [{"size": "1"}, {"size": "1"}, {"size": "1"}, {"size": "32"}]}}}, "dtype": {"type": "DT_FLOAT"}}}, {"name": "StatefulPartitionedCall/functional_113_1/efficientnetb2_1/block1a_dwconv_1/depthwise/ReadVariableOp", "op": "Const", "attr": {"value": {"tensor": {"dtype": "DT_FLOAT", "tensorShape": {"dim": [{"size": "3"}, {"size": "3"}, {"size": "32"}, {"size": "1"}]}}}, "dtype": {"type": "DT_FLOAT"}}}, {"name": "StatefulPartitionedCall/functional_113_1/efficientnetb2_1/block1a_bn_1/batchnorm/mul", "op": "Const", "attr": {"value": {"tensor": {"dtype": "DT_FLOAT", "tensorShape": {"dim": [{"size": "1"}, {"size": "1"}, {"size": "1"}, {"size": "32"}]}}}, "dtype": {"type": "DT_FLOAT"}}}, {"name": "StatefulPartitionedCall/functional_113_1/efficientnetb2_1/block1a_bn_1/batchnorm/sub", "op": "Const", "attr": {"value": {"tensor": {"dtype": "DT_FLOAT", "tensorShape": {"dim": [{"size": "1"}, {"size": "1"}, {"size": "1"}, {"size": "32"}]}}}, "dtype": {"type": "DT_FLOAT"}}}, {"name": "StatefulPartitionedCall/functional_113_1/efficientnetb2_1/block1a_se_squeeze_1/Mean/reduction_indices", "op": "Const", "attr": {"value": {"tensor": {"dtype": "DT_INT32", "tensorShape": {"dim": [{"size": "2"}]}}}, "dtype": {"type": "DT_INT32"}}}, {"name": "StatefulPartitionedCall/functional_113_1/efficientnetb2_1/block1a_se_reshape_1/strided_slice/stack", "op": "Const", "attr": {"value": {"tensor": {"dtype": "DT_INT32", "tensorShape": {"dim": [{"size": "1"}]}}}, "dtype": {"type": "DT_INT32"}}}, {"name": "StatefulPartitionedCall/functional_113_1/efficientnetb2_1/block1a_se_reshape_1/strided_slice/stack_1", "op": "Const", "attr": {"value": {"tensor": {"dtype": "DT_INT32", "tensorShape": {"dim": [{"size": "1"}]}}}, "dtype": {"type": "DT_INT32"}}}, {"name": "StatefulPartitionedCall/functional_113_1/efficientnetb2_1/block1a_se_reshape_1/strided_slice/stack_2", "op": "Const", "attr": {"value": {"tensor": {"dtype": "DT_INT32", "tensorShape": {"dim": [{"size": "1"}]}}}, "dtype": {"type": "DT_INT32"}}}, {"name": "StatefulPartitionedCall/functional_113_1/efficientnetb2_1/block1a_se_reshape_1/Reshape/shape/1", "op": "Const", "attr": {"value": {"tensor": {"dtype": "DT_INT32", "tensorShape": {}}}, "dtype": {"type": "DT_INT32"}}}, {"name": "StatefulPartitionedCall/functional_113_1/efficientnetb2_1/block1a_se_reshape_1/Reshape/shape/2", "op": "Const", "attr": {"value": {"tensor": {"dtype": "DT_INT32", "tensorShape": {}}}, "dtype": {"type": "DT_INT32"}}}, {"name": "StatefulPartitionedCall/functional_113_1/efficientnetb2_1/block1a_se_reshape_1/Reshape/shape/3", "op": "Const", "attr": {"value": {"tensor": {"dtype": "DT_INT32", "tensorShape": {}}}, "dtype": {"type": "DT_INT32"}}}, {"name": "StatefulPartitionedCall/functional_113_1/efficientnetb2_1/block1a_se_reduce_1/convolution/ReadVariableOp", "op": "Const", "attr": {"value": {"tensor": {"dtype": "DT_FLOAT", "tensorShape": {"dim": [{"size": "1"}, {"size": "1"}, {"size": "32"}, {"size": "8"}]}}}, "dtype": {"type": "DT_FLOAT"}}}, {"name": "StatefulPartitionedCall/functional_113_1/efficientnetb2_1/block1a_se_reduce_1/Squeeze", "op": "Const", "attr": {"value": {"tensor": {"dtype": "DT_FLOAT", "tensorShape": {"dim": [{"size": "8"}]}}}, "dtype": {"type": "DT_FLOAT"}}}, {"name": "StatefulPartitionedCall/functional_113_1/efficientnetb2_1/block1a_se_expand_1/convolution/ReadVariableOp", "op": "Const", "attr": {"value": {"tensor": {"dtype": "DT_FLOAT", "tensorShape": {"dim": [{"size": "1"}, {"size": "1"}, {"size": "8"}, {"size": "32"}]}}}, "dtype": {"type": "DT_FLOAT"}}}, {"name": "StatefulPartitionedCall/functional_113_1/efficientnetb2_1/block1a_se_expand_1/Squeeze", "op": "Const", "attr": {"value": {"tensor": {"dtype": "DT_FLOAT", "tensorShape": {"dim": [{"size": "32"}]}}}, "dtype": {"type": "DT_FLOAT"}}}, {"name": "StatefulPartitionedCall/functional_113_1/efficientnetb2_1/block1a_project_conv_1/convolution/merged_input", "op": "Const", "attr": {"value": {"tensor": {"dtype": "DT_FLOAT", "tensorShape": {"dim": [{"size": "1"}, {"size": "1"}, {"size": "32"}, {"size": "16"}]}}}, "dtype": {"type": "DT_FLOAT"}}}, {"name": "StatefulPartitionedCall/functional_113_1/efficientnetb2_1/block1a_project_bn_1/batchnorm/sub", "op": "Const", "attr": {"value": {"tensor": {"dtype": "DT_FLOAT", "tensorShape": {"dim": [{"size": "1"}, {"size": "1"}, {"size": "1"}, {"size": "16"}]}}}, "dtype": {"type": "DT_FLOAT"}}}, {"name": "StatefulPartitionedCall/functional_113_1/efficientnetb2_1/block2a_expand_conv_1/convolution/merged_input", "op": "Const", "attr": {"value": {"tensor": {"dtype": "DT_FLOAT", "tensorShape": {"dim": [{"size": "1"}, {"size": "1"}, {"size": "16"}, {"size": "96"}]}}}, "dtype": {"type": "DT_FLOAT"}}}, {"name": "StatefulPartitionedCall/functional_113_1/efficientnetb2_1/block2a_expand_bn_1/batchnorm/sub", "op": "Const", "attr": {"value": {"tensor": {"dtype": "DT_FLOAT", "tensorShape": {"dim": [{"size": "1"}, {"size": "1"}, {"size": "1"}, {"size": "96"}]}}}, "dtype": {"type": "DT_FLOAT"}}}, {"name": "StatefulPartitionedCall/functional_113_1/efficientnetb2_1/block2a_dwconv_pad_1/Const", "op": "Const", "attr": {"value": {"tensor": {"dtype": "DT_INT32", "tensorShape": {"dim": [{"size": "4"}, {"size": "2"}]}}}, "dtype": {"type": "DT_INT32"}}}, {"name": "StatefulPartitionedCall/functional_113_1/efficientnetb2_1/block2a_dwconv_1/depthwise/ReadVariableOp", "op": "Const", "attr": {"value": {"tensor": {"dtype": "DT_FLOAT", "tensorShape": {"dim": [{"size": "3"}, {"size": "3"}, {"size": "96"}, {"size": "1"}]}}}, "dtype": {"type": "DT_FLOAT"}}}, {"name": "StatefulPartitionedCall/functional_113_1/efficientnetb2_1/block2a_bn_1/batchnorm/mul", "op": "Const", "attr": {"value": {"tensor": {"dtype": "DT_FLOAT", "tensorShape": {"dim": [{"size": "1"}, {"size": "1"}, {"size": "1"}, {"size": "96"}]}}}, "dtype": {"type": "DT_FLOAT"}}}, {"name": "StatefulPartitionedCall/functional_113_1/efficientnetb2_1/block2a_bn_1/batchnorm/sub", "op": "Const", "attr": {"value": {"tensor": {"dtype": "DT_FLOAT", "tensorShape": {"dim": [{"size": "1"}, {"size": "1"}, {"size": "1"}, {"size": "96"}]}}}, "dtype": {"type": "DT_FLOAT"}}}, {"name": "StatefulPartitionedCall/functional_113_1/efficientnetb2_1/block2a_se_squeeze_1/Mean/reduction_indices", "op": "Const", "attr": {"value": {"tensor": {"dtype": "DT_INT32", "tensorShape": {"dim": [{"size": "2"}]}}}, "dtype": {"type": "DT_INT32"}}}, {"name": "StatefulPartitionedCall/functional_113_1/efficientnetb2_1/block2a_se_reshape_1/strided_slice/stack", "op": "Const", "attr": {"value": {"tensor": {"dtype": "DT_INT32", "tensorShape": {"dim": [{"size": "1"}]}}}, "dtype": {"type": "DT_INT32"}}}, {"name": "StatefulPartitionedCall/functional_113_1/efficientnetb2_1/block2a_se_reshape_1/strided_slice/stack_1", "op": "Const", "attr": {"value": {"tensor": {"dtype": "DT_INT32", "tensorShape": {"dim": [{"size": "1"}]}}}, "dtype": {"type": "DT_INT32"}}}, {"name": "StatefulPartitionedCall/functional_113_1/efficientnetb2_1/block2a_se_reshape_1/strided_slice/stack_2", "op": "Const", "attr": {"value": {"tensor": {"dtype": "DT_INT32", "tensorShape": {"dim": [{"size": "1"}]}}}, "dtype": {"type": "DT_INT32"}}}, {"name": "StatefulPartitionedCall/functional_113_1/efficientnetb2_1/block2a_se_reshape_1/Reshape/shape/1", "op": "Const", "attr": {"value": {"tensor": {"dtype": "DT_INT32", "tensorShape": {}}}, "dtype": {"type": "DT_INT32"}}}, {"name": "StatefulPartitionedCall/functional_113_1/efficientnetb2_1/block2a_se_reshape_1/Reshape/shape/2", "op": "Const", "attr": {"value": {"tensor": {"dtype": "DT_INT32", "tensorShape": {}}}, "dtype": {"type": "DT_INT32"}}}, {"name": "StatefulPartitionedCall/functional_113_1/efficientnetb2_1/block2a_se_reshape_1/Reshape/shape/3", "op": "Const", "attr": {"value": {"tensor": {"dtype": "DT_INT32", "tensorShape": {}}}, "dtype": {"type": "DT_INT32"}}}, {"name": "StatefulPartitionedCall/functional_113_1/efficientnetb2_1/block2a_se_reduce_1/convolution/ReadVariableOp", "op": "Const", "attr": {"value": {"tensor": {"dtype": "DT_FLOAT", "tensorShape": {"dim": [{"size": "1"}, {"size": "1"}, {"size": "96"}, {"size": "4"}]}}}, "dtype": {"type": "DT_FLOAT"}}}, {"name": "StatefulPartitionedCall/functional_113_1/efficientnetb2_1/block2a_se_reduce_1/Squeeze", "op": "Const", "attr": {"value": {"tensor": {"dtype": "DT_FLOAT", "tensorShape": {"dim": [{"size": "4"}]}}}, "dtype": {"type": "DT_FLOAT"}}}, {"name": "StatefulPartitionedCall/functional_113_1/efficientnetb2_1/block2a_se_expand_1/convolution/ReadVariableOp", "op": "Const", "attr": {"value": {"tensor": {"dtype": "DT_FLOAT", "tensorShape": {"dim": [{"size": "1"}, {"size": "1"}, {"size": "4"}, {"size": "96"}]}}}, "dtype": {"type": "DT_FLOAT"}}}, {"name": "StatefulPartitionedCall/functional_113_1/efficientnetb2_1/block2a_se_expand_1/Squeeze", "op": "Const", "attr": {"value": {"tensor": {"dtype": "DT_FLOAT", "tensorShape": {"dim": [{"size": "96"}]}}}, "dtype": {"type": "DT_FLOAT"}}}, {"name": "StatefulPartitionedCall/functional_113_1/efficientnetb2_1/block2a_project_conv_1/convolution/merged_input", "op": "Const", "attr": {"value": {"tensor": {"dtype": "DT_FLOAT", "tensorShape": {"dim": [{"size": "1"}, {"size": "1"}, {"size": "96"}, {"size": "24"}]}}}, "dtype": {"type": "DT_FLOAT"}}}, {"name": "StatefulPartitionedCall/functional_113_1/efficientnetb2_1/block2a_project_bn_1/batchnorm/sub", "op": "Const", "attr": {"value": {"tensor": {"dtype": "DT_FLOAT", "tensorShape": {"dim": [{"size": "1"}, {"size": "1"}, {"size": "1"}, {"size": "24"}]}}}, "dtype": {"type": "DT_FLOAT"}}}, {"name": "StatefulPartitionedCall/functional_113_1/efficientnetb2_1/block3a_expand_conv_1/convolution/merged_input", "op": "Const", "attr": {"value": {"tensor": {"dtype": "DT_FLOAT", "tensorShape": {"dim": [{"size": "1"}, {"size": "1"}, {"size": "24"}, {"size": "144"}]}}}, "dtype": {"type": "DT_FLOAT"}}}, {"name": "StatefulPartitionedCall/functional_113_1/efficientnetb2_1/block3a_expand_bn_1/batchnorm/sub", "op": "Const", "attr": {"value": {"tensor": {"dtype": "DT_FLOAT", "tensorShape": {"dim": [{"size": "1"}, {"size": "1"}, {"size": "1"}, {"size": "144"}]}}}, "dtype": {"type": "DT_FLOAT"}}}, {"name": "StatefulPartitionedCall/functional_113_1/efficientnetb2_1/block3a_dwconv_pad_1/Const", "op": "Const", "attr": {"value": {"tensor": {"dtype": "DT_INT32", "tensorShape": {"dim": [{"size": "4"}, {"size": "2"}]}}}, "dtype": {"type": "DT_INT32"}}}, {"name": "StatefulPartitionedCall/functional_113_1/efficientnetb2_1/block3a_dwconv_1/depthwise/ReadVariableOp", "op": "Const", "attr": {"value": {"tensor": {"dtype": "DT_FLOAT", "tensorShape": {"dim": [{"size": "5"}, {"size": "5"}, {"size": "144"}, {"size": "1"}]}}}, "dtype": {"type": "DT_FLOAT"}}}, {"name": "StatefulPartitionedCall/functional_113_1/efficientnetb2_1/block3a_bn_1/batchnorm/mul", "op": "Const", "attr": {"value": {"tensor": {"dtype": "DT_FLOAT", "tensorShape": {"dim": [{"size": "1"}, {"size": "1"}, {"size": "1"}, {"size": "144"}]}}}, "dtype": {"type": "DT_FLOAT"}}}, {"name": "StatefulPartitionedCall/functional_113_1/efficientnetb2_1/block3a_bn_1/batchnorm/sub", "op": "Const", "attr": {"value": {"tensor": {"dtype": "DT_FLOAT", "tensorShape": {"dim": [{"size": "1"}, {"size": "1"}, {"size": "1"}, {"size": "144"}]}}}, "dtype": {"type": "DT_FLOAT"}}}, {"name": "StatefulPartitionedCall/functional_113_1/efficientnetb2_1/block3a_se_squeeze_1/Mean/reduction_indices", "op": "Const", "attr": {"value": {"tensor": {"dtype": "DT_INT32", "tensorShape": {"dim": [{"size": "2"}]}}}, "dtype": {"type": "DT_INT32"}}}, {"name": "StatefulPartitionedCall/functional_113_1/efficientnetb2_1/block3a_se_reshape_1/strided_slice/stack", "op": "Const", "attr": {"value": {"tensor": {"dtype": "DT_INT32", "tensorShape": {"dim": [{"size": "1"}]}}}, "dtype": {"type": "DT_INT32"}}}, {"name": "StatefulPartitionedCall/functional_113_1/efficientnetb2_1/block3a_se_reshape_1/strided_slice/stack_1", "op": "Const", "attr": {"value": {"tensor": {"dtype": "DT_INT32", "tensorShape": {"dim": [{"size": "1"}]}}}, "dtype": {"type": "DT_INT32"}}}, {"name": "StatefulPartitionedCall/functional_113_1/efficientnetb2_1/block3a_se_reshape_1/strided_slice/stack_2", "op": "Const", "attr": {"value": {"tensor": {"dtype": "DT_INT32", "tensorShape": {"dim": [{"size": "1"}]}}}, "dtype": {"type": "DT_INT32"}}}, {"name": "StatefulPartitionedCall/functional_113_1/efficientnetb2_1/block3a_se_reshape_1/Reshape/shape/1", "op": "Const", "attr": {"value": {"tensor": {"dtype": "DT_INT32", "tensorShape": {}}}, "dtype": {"type": "DT_INT32"}}}, {"name": "StatefulPartitionedCall/functional_113_1/efficientnetb2_1/block3a_se_reshape_1/Reshape/shape/2", "op": "Const", "attr": {"value": {"tensor": {"dtype": "DT_INT32", "tensorShape": {}}}, "dtype": {"type": "DT_INT32"}}}, {"name": "StatefulPartitionedCall/functional_113_1/efficientnetb2_1/block3a_se_reshape_1/Reshape/shape/3", "op": "Const", "attr": {"value": {"tensor": {"dtype": "DT_INT32", "tensorShape": {}}}, "dtype": {"type": "DT_INT32"}}}, {"name": "StatefulPartitionedCall/functional_113_1/efficientnetb2_1/block3a_se_reduce_1/convolution/ReadVariableOp", "op": "Const", "attr": {"value": {"tensor": {"dtype": "DT_FLOAT", "tensorShape": {"dim": [{"size": "1"}, {"size": "1"}, {"size": "144"}, {"size": "6"}]}}}, "dtype": {"type": "DT_FLOAT"}}}, {"name": "StatefulPartitionedCall/functional_113_1/efficientnetb2_1/block3a_se_reduce_1/Squeeze", "op": "Const", "attr": {"value": {"tensor": {"dtype": "DT_FLOAT", "tensorShape": {"dim": [{"size": "6"}]}}}, "dtype": {"type": "DT_FLOAT"}}}, {"name": "StatefulPartitionedCall/functional_113_1/efficientnetb2_1/block3a_se_expand_1/convolution/ReadVariableOp", "op": "Const", "attr": {"value": {"tensor": {"dtype": "DT_FLOAT", "tensorShape": {"dim": [{"size": "1"}, {"size": "1"}, {"size": "6"}, {"size": "144"}]}}}, "dtype": {"type": "DT_FLOAT"}}}, {"name": "StatefulPartitionedCall/functional_113_1/efficientnetb2_1/block3a_se_expand_1/Squeeze", "op": "Const", "attr": {"value": {"tensor": {"dtype": "DT_FLOAT", "tensorShape": {"dim": [{"size": "144"}]}}}, "dtype": {"type": "DT_FLOAT"}}}, {"name": "StatefulPartitionedCall/functional_113_1/efficientnetb2_1/block3a_project_conv_1/convolution/merged_input", "op": "Const", "attr": {"value": {"tensor": {"dtype": "DT_FLOAT", "tensorShape": {"dim": [{"size": "1"}, {"size": "1"}, {"size": "144"}, {"size": "48"}]}}}, "dtype": {"type": "DT_FLOAT"}}}, {"name": "StatefulPartitionedCall/functional_113_1/efficientnetb2_1/block3a_project_bn_1/batchnorm/sub", "op": "Const", "attr": {"value": {"tensor": {"dtype": "DT_FLOAT", "tensorShape": {"dim": [{"size": "1"}, {"size": "1"}, {"size": "1"}, {"size": "48"}]}}}, "dtype": {"type": "DT_FLOAT"}}}, {"name": "StatefulPartitionedCall/functional_113_1/efficientnetb2_1/block4a_expand_conv_1/convolution/merged_input", "op": "Const", "attr": {"value": {"tensor": {"dtype": "DT_FLOAT", "tensorShape": {"dim": [{"size": "1"}, {"size": "1"}, {"size": "48"}, {"size": "288"}]}}}, "dtype": {"type": "DT_FLOAT"}}}, {"name": "StatefulPartitionedCall/functional_113_1/efficientnetb2_1/block4a_expand_bn_1/batchnorm/sub", "op": "Const", "attr": {"value": {"tensor": {"dtype": "DT_FLOAT", "tensorShape": {"dim": [{"size": "1"}, {"size": "1"}, {"size": "1"}, {"size": "288"}]}}}, "dtype": {"type": "DT_FLOAT"}}}, {"name": "StatefulPartitionedCall/functional_113_1/efficientnetb2_1/block4a_dwconv_pad_1/Const", "op": "Const", "attr": {"value": {"tensor": {"dtype": "DT_INT32", "tensorShape": {"dim": [{"size": "4"}, {"size": "2"}]}}}, "dtype": {"type": "DT_INT32"}}}, {"name": "StatefulPartitionedCall/functional_113_1/efficientnetb2_1/block4a_dwconv_1/depthwise/ReadVariableOp", "op": "Const", "attr": {"value": {"tensor": {"dtype": "DT_FLOAT", "tensorShape": {"dim": [{"size": "3"}, {"size": "3"}, {"size": "288"}, {"size": "1"}]}}}, "dtype": {"type": "DT_FLOAT"}}}, {"name": "StatefulPartitionedCall/functional_113_1/efficientnetb2_1/block4a_bn_1/batchnorm/mul", "op": "Const", "attr": {"value": {"tensor": {"dtype": "DT_FLOAT", "tensorShape": {"dim": [{"size": "1"}, {"size": "1"}, {"size": "1"}, {"size": "288"}]}}}, "dtype": {"type": "DT_FLOAT"}}}, {"name": "StatefulPartitionedCall/functional_113_1/efficientnetb2_1/block4a_bn_1/batchnorm/sub", "op": "Const", "attr": {"value": {"tensor": {"dtype": "DT_FLOAT", "tensorShape": {"dim": [{"size": "1"}, {"size": "1"}, {"size": "1"}, {"size": "288"}]}}}, "dtype": {"type": "DT_FLOAT"}}}, {"name": "StatefulPartitionedCall/functional_113_1/efficientnetb2_1/block4a_se_squeeze_1/Mean/reduction_indices", "op": "Const", "attr": {"value": {"tensor": {"dtype": "DT_INT32", "tensorShape": {"dim": [{"size": "2"}]}}}, "dtype": {"type": "DT_INT32"}}}, {"name": "StatefulPartitionedCall/functional_113_1/efficientnetb2_1/block4a_se_reshape_1/strided_slice/stack", "op": "Const", "attr": {"value": {"tensor": {"dtype": "DT_INT32", "tensorShape": {"dim": [{"size": "1"}]}}}, "dtype": {"type": "DT_INT32"}}}, {"name": "StatefulPartitionedCall/functional_113_1/efficientnetb2_1/block4a_se_reshape_1/strided_slice/stack_1", "op": "Const", "attr": {"value": {"tensor": {"dtype": "DT_INT32", "tensorShape": {"dim": [{"size": "1"}]}}}, "dtype": {"type": "DT_INT32"}}}, {"name": "StatefulPartitionedCall/functional_113_1/efficientnetb2_1/block4a_se_reshape_1/strided_slice/stack_2", "op": "Const", "attr": {"value": {"tensor": {"dtype": "DT_INT32", "tensorShape": {"dim": [{"size": "1"}]}}}, "dtype": {"type": "DT_INT32"}}}, {"name": "StatefulPartitionedCall/functional_113_1/efficientnetb2_1/block4a_se_reshape_1/Reshape/shape/1", "op": "Const", "attr": {"value": {"tensor": {"dtype": "DT_INT32", "tensorShape": {}}}, "dtype": {"type": "DT_INT32"}}}, {"name": "StatefulPartitionedCall/functional_113_1/efficientnetb2_1/block4a_se_reshape_1/Reshape/shape/2", "op": "Const", "attr": {"value": {"tensor": {"dtype": "DT_INT32", "tensorShape": {}}}, "dtype": {"type": "DT_INT32"}}}, {"name": "StatefulPartitionedCall/functional_113_1/efficientnetb2_1/block4a_se_reshape_1/Reshape/shape/3", "op": "Const", "attr": {"value": {"tensor": {"dtype": "DT_INT32", "tensorShape": {}}}, "dtype": {"type": "DT_INT32"}}}, {"name": "StatefulPartitionedCall/functional_113_1/efficientnetb2_1/block4a_se_reduce_1/convolution/ReadVariableOp", "op": "Const", "attr": {"value": {"tensor": {"dtype": "DT_FLOAT", "tensorShape": {"dim": [{"size": "1"}, {"size": "1"}, {"size": "288"}, {"size": "12"}]}}}, "dtype": {"type": "DT_FLOAT"}}}, {"name": "StatefulPartitionedCall/functional_113_1/efficientnetb2_1/block4a_se_reduce_1/Squeeze", "op": "Const", "attr": {"value": {"tensor": {"dtype": "DT_FLOAT", "tensorShape": {"dim": [{"size": "12"}]}}}, "dtype": {"type": "DT_FLOAT"}}}, {"name": "StatefulPartitionedCall/functional_113_1/efficientnetb2_1/block4a_se_expand_1/convolution/ReadVariableOp", "op": "Const", "attr": {"value": {"tensor": {"dtype": "DT_FLOAT", "tensorShape": {"dim": [{"size": "1"}, {"size": "1"}, {"size": "12"}, {"size": "288"}]}}}, "dtype": {"type": "DT_FLOAT"}}}, {"name": "StatefulPartitionedCall/functional_113_1/efficientnetb2_1/block4a_se_expand_1/Squeeze", "op": "Const", "attr": {"value": {"tensor": {"dtype": "DT_FLOAT", "tensorShape": {"dim": [{"size": "288"}]}}}, "dtype": {"type": "DT_FLOAT"}}}, {"name": "StatefulPartitionedCall/functional_113_1/efficientnetb2_1/block4a_project_conv_1/convolution/merged_input", "op": "Const", "attr": {"value": {"tensor": {"dtype": "DT_FLOAT", "tensorShape": {"dim": [{"size": "1"}, {"size": "1"}, {"size": "288"}, {"size": "88"}]}}}, "dtype": {"type": "DT_FLOAT"}}}, {"name": "StatefulPartitionedCall/functional_113_1/efficientnetb2_1/block4a_project_bn_1/batchnorm/sub", "op": "Const", "attr": {"value": {"tensor": {"dtype": "DT_FLOAT", "tensorShape": {"dim": [{"size": "1"}, {"size": "1"}, {"size": "1"}, {"size": "88"}]}}}, "dtype": {"type": "DT_FLOAT"}}}, {"name": "StatefulPartitionedCall/functional_113_1/efficientnetb2_1/block5a_expand_conv_1/convolution/merged_input", "op": "Const", "attr": {"value": {"tensor": {"dtype": "DT_FLOAT", "tensorShape": {"dim": [{"size": "1"}, {"size": "1"}, {"size": "88"}, {"size": "528"}]}}}, "dtype": {"type": "DT_FLOAT"}}}, {"name": "StatefulPartitionedCall/functional_113_1/efficientnetb2_1/block5a_expand_bn_1/batchnorm/sub", "op": "Const", "attr": {"value": {"tensor": {"dtype": "DT_FLOAT", "tensorShape": {"dim": [{"size": "1"}, {"size": "1"}, {"size": "1"}, {"size": "528"}]}}}, "dtype": {"type": "DT_FLOAT"}}}, {"name": "StatefulPartitionedCall/functional_113_1/efficientnetb2_1/block5a_dwconv_1/depthwise/ReadVariableOp", "op": "Const", "attr": {"value": {"tensor": {"dtype": "DT_FLOAT", "tensorShape": {"dim": [{"size": "5"}, {"size": "5"}, {"size": "528"}, {"size": "1"}]}}}, "dtype": {"type": "DT_FLOAT"}}}, {"name": "StatefulPartitionedCall/functional_113_1/efficientnetb2_1/block5a_bn_1/batchnorm/mul", "op": "Const", "attr": {"value": {"tensor": {"dtype": "DT_FLOAT", "tensorShape": {"dim": [{"size": "1"}, {"size": "1"}, {"size": "1"}, {"size": "528"}]}}}, "dtype": {"type": "DT_FLOAT"}}}, {"name": "StatefulPartitionedCall/functional_113_1/efficientnetb2_1/block5a_bn_1/batchnorm/sub", "op": "Const", "attr": {"value": {"tensor": {"dtype": "DT_FLOAT", "tensorShape": {"dim": [{"size": "1"}, {"size": "1"}, {"size": "1"}, {"size": "528"}]}}}, "dtype": {"type": "DT_FLOAT"}}}, {"name": "StatefulPartitionedCall/functional_113_1/efficientnetb2_1/block5a_se_squeeze_1/Mean/reduction_indices", "op": "Const", "attr": {"value": {"tensor": {"dtype": "DT_INT32", "tensorShape": {"dim": [{"size": "2"}]}}}, "dtype": {"type": "DT_INT32"}}}, {"name": "StatefulPartitionedCall/functional_113_1/efficientnetb2_1/block5a_se_reshape_1/strided_slice/stack", "op": "Const", "attr": {"value": {"tensor": {"dtype": "DT_INT32", "tensorShape": {"dim": [{"size": "1"}]}}}, "dtype": {"type": "DT_INT32"}}}, {"name": "StatefulPartitionedCall/functional_113_1/efficientnetb2_1/block5a_se_reshape_1/strided_slice/stack_1", "op": "Const", "attr": {"value": {"tensor": {"dtype": "DT_INT32", "tensorShape": {"dim": [{"size": "1"}]}}}, "dtype": {"type": "DT_INT32"}}}, {"name": "StatefulPartitionedCall/functional_113_1/efficientnetb2_1/block5a_se_reshape_1/strided_slice/stack_2", "op": "Const", "attr": {"value": {"tensor": {"dtype": "DT_INT32", "tensorShape": {"dim": [{"size": "1"}]}}}, "dtype": {"type": "DT_INT32"}}}, {"name": "StatefulPartitionedCall/functional_113_1/efficientnetb2_1/block5a_se_reshape_1/Reshape/shape/1", "op": "Const", "attr": {"value": {"tensor": {"dtype": "DT_INT32", "tensorShape": {}}}, "dtype": {"type": "DT_INT32"}}}, {"name": "StatefulPartitionedCall/functional_113_1/efficientnetb2_1/block5a_se_reshape_1/Reshape/shape/2", "op": "Const", "attr": {"value": {"tensor": {"dtype": "DT_INT32", "tensorShape": {}}}, "dtype": {"type": "DT_INT32"}}}, {"name": "StatefulPartitionedCall/functional_113_1/efficientnetb2_1/block5a_se_reshape_1/Reshape/shape/3", "op": "Const", "attr": {"value": {"tensor": {"dtype": "DT_INT32", "tensorShape": {}}}, "dtype": {"type": "DT_INT32"}}}, {"name": "StatefulPartitionedCall/functional_113_1/efficientnetb2_1/block5a_se_reduce_1/convolution/ReadVariableOp", "op": "Const", "attr": {"value": {"tensor": {"dtype": "DT_FLOAT", "tensorShape": {"dim": [{"size": "1"}, {"size": "1"}, {"size": "528"}, {"size": "22"}]}}}, "dtype": {"type": "DT_FLOAT"}}}, {"name": "StatefulPartitionedCall/functional_113_1/efficientnetb2_1/block5a_se_reduce_1/Squeeze", "op": "Const", "attr": {"value": {"tensor": {"dtype": "DT_FLOAT", "tensorShape": {"dim": [{"size": "22"}]}}}, "dtype": {"type": "DT_FLOAT"}}}, {"name": "StatefulPartitionedCall/functional_113_1/efficientnetb2_1/block5a_se_expand_1/convolution/ReadVariableOp", "op": "Const", "attr": {"value": {"tensor": {"dtype": "DT_FLOAT", "tensorShape": {"dim": [{"size": "1"}, {"size": "1"}, {"size": "22"}, {"size": "528"}]}}}, "dtype": {"type": "DT_FLOAT"}}}, {"name": "StatefulPartitionedCall/functional_113_1/efficientnetb2_1/block5a_se_expand_1/Squeeze", "op": "Const", "attr": {"value": {"tensor": {"dtype": "DT_FLOAT", "tensorShape": {"dim": [{"size": "528"}]}}}, "dtype": {"type": "DT_FLOAT"}}}, {"name": "StatefulPartitionedCall/functional_113_1/efficientnetb2_1/block5a_project_conv_1/convolution/merged_input", "op": "Const", "attr": {"value": {"tensor": {"dtype": "DT_FLOAT", "tensorShape": {"dim": [{"size": "1"}, {"size": "1"}, {"size": "528"}, {"size": "120"}]}}}, "dtype": {"type": "DT_FLOAT"}}}, {"name": "StatefulPartitionedCall/functional_113_1/efficientnetb2_1/block5a_project_bn_1/batchnorm/sub", "op": "Const", "attr": {"value": {"tensor": {"dtype": "DT_FLOAT", "tensorShape": {"dim": [{"size": "1"}, {"size": "1"}, {"size": "1"}, {"size": "120"}]}}}, "dtype": {"type": "DT_FLOAT"}}}, {"name": "StatefulPartitionedCall/functional_113_1/efficientnetb2_1/block6a_expand_conv_1/convolution/merged_input", "op": "Const", "attr": {"value": {"tensor": {"dtype": "DT_FLOAT", "tensorShape": {"dim": [{"size": "1"}, {"size": "1"}, {"size": "120"}, {"size": "720"}]}}}, "dtype": {"type": "DT_FLOAT"}}}, {"name": "StatefulPartitionedCall/functional_113_1/efficientnetb2_1/block6a_expand_bn_1/batchnorm/sub", "op": "Const", "attr": {"value": {"tensor": {"dtype": "DT_FLOAT", "tensorShape": {"dim": [{"size": "1"}, {"size": "1"}, {"size": "1"}, {"size": "720"}]}}}, "dtype": {"type": "DT_FLOAT"}}}, {"name": "StatefulPartitionedCall/functional_113_1/efficientnetb2_1/block6a_dwconv_pad_1/Const", "op": "Const", "attr": {"value": {"tensor": {"dtype": "DT_INT32", "tensorShape": {"dim": [{"size": "4"}, {"size": "2"}]}}}, "dtype": {"type": "DT_INT32"}}}, {"name": "StatefulPartitionedCall/functional_113_1/efficientnetb2_1/block6a_dwconv_1/depthwise/ReadVariableOp", "op": "Const", "attr": {"value": {"tensor": {"dtype": "DT_FLOAT", "tensorShape": {"dim": [{"size": "5"}, {"size": "5"}, {"size": "720"}, {"size": "1"}]}}}, "dtype": {"type": "DT_FLOAT"}}}, {"name": "StatefulPartitionedCall/functional_113_1/efficientnetb2_1/block6a_bn_1/batchnorm/mul", "op": "Const", "attr": {"value": {"tensor": {"dtype": "DT_FLOAT", "tensorShape": {"dim": [{"size": "1"}, {"size": "1"}, {"size": "1"}, {"size": "720"}]}}}, "dtype": {"type": "DT_FLOAT"}}}, {"name": "StatefulPartitionedCall/functional_113_1/efficientnetb2_1/block6a_bn_1/batchnorm/sub", "op": "Const", "attr": {"value": {"tensor": {"dtype": "DT_FLOAT", "tensorShape": {"dim": [{"size": "1"}, {"size": "1"}, {"size": "1"}, {"size": "720"}]}}}, "dtype": {"type": "DT_FLOAT"}}}, {"name": "StatefulPartitionedCall/functional_113_1/efficientnetb2_1/block6a_se_squeeze_1/Mean/reduction_indices", "op": "Const", "attr": {"value": {"tensor": {"dtype": "DT_INT32", "tensorShape": {"dim": [{"size": "2"}]}}}, "dtype": {"type": "DT_INT32"}}}, {"name": "StatefulPartitionedCall/functional_113_1/efficientnetb2_1/block6a_se_reshape_1/strided_slice/stack", "op": "Const", "attr": {"value": {"tensor": {"dtype": "DT_INT32", "tensorShape": {"dim": [{"size": "1"}]}}}, "dtype": {"type": "DT_INT32"}}}, {"name": "StatefulPartitionedCall/functional_113_1/efficientnetb2_1/block6a_se_reshape_1/strided_slice/stack_1", "op": "Const", "attr": {"value": {"tensor": {"dtype": "DT_INT32", "tensorShape": {"dim": [{"size": "1"}]}}}, "dtype": {"type": "DT_INT32"}}}, {"name": "StatefulPartitionedCall/functional_113_1/efficientnetb2_1/block6a_se_reshape_1/strided_slice/stack_2", "op": "Const", "attr": {"value": {"tensor": {"dtype": "DT_INT32", "tensorShape": {"dim": [{"size": "1"}]}}}, "dtype": {"type": "DT_INT32"}}}, {"name": "StatefulPartitionedCall/functional_113_1/efficientnetb2_1/block6a_se_reshape_1/Reshape/shape/1", "op": "Const", "attr": {"value": {"tensor": {"dtype": "DT_INT32", "tensorShape": {}}}, "dtype": {"type": "DT_INT32"}}}, {"name": "StatefulPartitionedCall/functional_113_1/efficientnetb2_1/block6a_se_reshape_1/Reshape/shape/2", "op": "Const", "attr": {"value": {"tensor": {"dtype": "DT_INT32", "tensorShape": {}}}, "dtype": {"type": "DT_INT32"}}}, {"name": "StatefulPartitionedCall/functional_113_1/efficientnetb2_1/block6a_se_reshape_1/Reshape/shape/3", "op": "Const", "attr": {"value": {"tensor": {"dtype": "DT_INT32", "tensorShape": {}}}, "dtype": {"type": "DT_INT32"}}}, {"name": "StatefulPartitionedCall/functional_113_1/efficientnetb2_1/block6a_se_reduce_1/convolution/ReadVariableOp", "op": "Const", "attr": {"value": {"tensor": {"dtype": "DT_FLOAT", "tensorShape": {"dim": [{"size": "1"}, {"size": "1"}, {"size": "720"}, {"size": "30"}]}}}, "dtype": {"type": "DT_FLOAT"}}}, {"name": "StatefulPartitionedCall/functional_113_1/efficientnetb2_1/block6a_se_reduce_1/Squeeze", "op": "Const", "attr": {"value": {"tensor": {"dtype": "DT_FLOAT", "tensorShape": {"dim": [{"size": "30"}]}}}, "dtype": {"type": "DT_FLOAT"}}}, {"name": "StatefulPartitionedCall/functional_113_1/efficientnetb2_1/block6a_se_expand_1/convolution/ReadVariableOp", "op": "Const", "attr": {"value": {"tensor": {"dtype": "DT_FLOAT", "tensorShape": {"dim": [{"size": "1"}, {"size": "1"}, {"size": "30"}, {"size": "720"}]}}}, "dtype": {"type": "DT_FLOAT"}}}, {"name": "StatefulPartitionedCall/functional_113_1/efficientnetb2_1/block6a_se_expand_1/Squeeze", "op": "Const", "attr": {"value": {"tensor": {"dtype": "DT_FLOAT", "tensorShape": {"dim": [{"size": "720"}]}}}, "dtype": {"type": "DT_FLOAT"}}}, {"name": "StatefulPartitionedCall/functional_113_1/efficientnetb2_1/block6a_project_conv_1/convolution/merged_input", "op": "Const", "attr": {"value": {"tensor": {"dtype": "DT_FLOAT", "tensorShape": {"dim": [{"size": "1"}, {"size": "1"}, {"size": "720"}, {"size": "208"}]}}}, "dtype": {"type": "DT_FLOAT"}}}, {"name": "StatefulPartitionedCall/functional_113_1/efficientnetb2_1/block6a_project_bn_1/batchnorm/sub", "op": "Const", "attr": {"value": {"tensor": {"dtype": "DT_FLOAT", "tensorShape": {"dim": [{"size": "1"}, {"size": "1"}, {"size": "1"}, {"size": "208"}]}}}, "dtype": {"type": "DT_FLOAT"}}}, {"name": "StatefulPartitionedCall/functional_113_1/efficientnetb2_1/block7a_expand_conv_1/convolution/merged_input", "op": "Const", "attr": {"value": {"tensor": {"dtype": "DT_FLOAT", "tensorShape": {"dim": [{"size": "1"}, {"size": "1"}, {"size": "208"}, {"size": "1248"}]}}}, "dtype": {"type": "DT_FLOAT"}}}, {"name": "StatefulPartitionedCall/functional_113_1/efficientnetb2_1/block7a_expand_bn_1/batchnorm/sub", "op": "Const", "attr": {"value": {"tensor": {"dtype": "DT_FLOAT", "tensorShape": {"dim": [{"size": "1"}, {"size": "1"}, {"size": "1"}, {"size": "1248"}]}}}, "dtype": {"type": "DT_FLOAT"}}}, {"name": "StatefulPartitionedCall/functional_113_1/efficientnetb2_1/block7a_dwconv_1/depthwise/ReadVariableOp", "op": "Const", "attr": {"value": {"tensor": {"dtype": "DT_FLOAT", "tensorShape": {"dim": [{"size": "3"}, {"size": "3"}, {"size": "1248"}, {"size": "1"}]}}}, "dtype": {"type": "DT_FLOAT"}}}, {"name": "StatefulPartitionedCall/functional_113_1/efficientnetb2_1/block7a_bn_1/batchnorm/mul", "op": "Const", "attr": {"value": {"tensor": {"dtype": "DT_FLOAT", "tensorShape": {"dim": [{"size": "1"}, {"size": "1"}, {"size": "1"}, {"size": "1248"}]}}}, "dtype": {"type": "DT_FLOAT"}}}, {"name": "StatefulPartitionedCall/functional_113_1/efficientnetb2_1/block7a_bn_1/batchnorm/sub", "op": "Const", "attr": {"value": {"tensor": {"dtype": "DT_FLOAT", "tensorShape": {"dim": [{"size": "1"}, {"size": "1"}, {"size": "1"}, {"size": "1248"}]}}}, "dtype": {"type": "DT_FLOAT"}}}, {"name": "StatefulPartitionedCall/functional_113_1/efficientnetb2_1/block7a_se_squeeze_1/Mean/reduction_indices", "op": "Const", "attr": {"value": {"tensor": {"dtype": "DT_INT32", "tensorShape": {"dim": [{"size": "2"}]}}}, "dtype": {"type": "DT_INT32"}}}, {"name": "StatefulPartitionedCall/functional_113_1/efficientnetb2_1/block7a_se_reshape_1/strided_slice/stack", "op": "Const", "attr": {"value": {"tensor": {"dtype": "DT_INT32", "tensorShape": {"dim": [{"size": "1"}]}}}, "dtype": {"type": "DT_INT32"}}}, {"name": "StatefulPartitionedCall/functional_113_1/efficientnetb2_1/block7a_se_reshape_1/strided_slice/stack_1", "op": "Const", "attr": {"value": {"tensor": {"dtype": "DT_INT32", "tensorShape": {"dim": [{"size": "1"}]}}}, "dtype": {"type": "DT_INT32"}}}, {"name": "StatefulPartitionedCall/functional_113_1/efficientnetb2_1/block7a_se_reshape_1/strided_slice/stack_2", "op": "Const", "attr": {"value": {"tensor": {"dtype": "DT_INT32", "tensorShape": {"dim": [{"size": "1"}]}}}, "dtype": {"type": "DT_INT32"}}}, {"name": "StatefulPartitionedCall/functional_113_1/efficientnetb2_1/block7a_se_reshape_1/Reshape/shape/1", "op": "Const", "attr": {"value": {"tensor": {"dtype": "DT_INT32", "tensorShape": {}}}, "dtype": {"type": "DT_INT32"}}}, {"name": "StatefulPartitionedCall/functional_113_1/efficientnetb2_1/block7a_se_reshape_1/Reshape/shape/2", "op": "Const", "attr": {"value": {"tensor": {"dtype": "DT_INT32", "tensorShape": {}}}, "dtype": {"type": "DT_INT32"}}}, {"name": "StatefulPartitionedCall/functional_113_1/efficientnetb2_1/block7a_se_reshape_1/Reshape/shape/3", "op": "Const", "attr": {"value": {"tensor": {"dtype": "DT_INT32", "tensorShape": {}}}, "dtype": {"type": "DT_INT32"}}}, {"name": "StatefulPartitionedCall/functional_113_1/efficientnetb2_1/block7a_se_reduce_1/convolution/ReadVariableOp", "op": "Const", "attr": {"value": {"tensor": {"dtype": "DT_FLOAT", "tensorShape": {"dim": [{"size": "1"}, {"size": "1"}, {"size": "1248"}, {"size": "52"}]}}}, "dtype": {"type": "DT_FLOAT"}}}, {"name": "StatefulPartitionedCall/functional_113_1/efficientnetb2_1/block7a_se_reduce_1/Squeeze", "op": "Const", "attr": {"value": {"tensor": {"dtype": "DT_FLOAT", "tensorShape": {"dim": [{"size": "52"}]}}}, "dtype": {"type": "DT_FLOAT"}}}, {"name": "StatefulPartitionedCall/functional_113_1/efficientnetb2_1/block7a_se_expand_1/convolution/ReadVariableOp", "op": "Const", "attr": {"value": {"tensor": {"dtype": "DT_FLOAT", "tensorShape": {"dim": [{"size": "1"}, {"size": "1"}, {"size": "52"}, {"size": "1248"}]}}}, "dtype": {"type": "DT_FLOAT"}}}, {"name": "StatefulPartitionedCall/functional_113_1/efficientnetb2_1/block7a_se_expand_1/Squeeze", "op": "Const", "attr": {"value": {"tensor": {"dtype": "DT_FLOAT", "tensorShape": {"dim": [{"size": "1248"}]}}}, "dtype": {"type": "DT_FLOAT"}}}, {"name": "StatefulPartitionedCall/functional_113_1/efficientnetb2_1/block7a_project_conv_1/convolution/merged_input", "op": "Const", "attr": {"value": {"tensor": {"dtype": "DT_FLOAT", "tensorShape": {"dim": [{"size": "1"}, {"size": "1"}, {"size": "1248"}, {"size": "352"}]}}}, "dtype": {"type": "DT_FLOAT"}}}, {"name": "StatefulPartitionedCall/functional_113_1/efficientnetb2_1/block7a_project_bn_1/batchnorm/sub", "op": "Const", "attr": {"value": {"tensor": {"dtype": "DT_FLOAT", "tensorShape": {"dim": [{"size": "1"}, {"size": "1"}, {"size": "1"}, {"size": "352"}]}}}, "dtype": {"type": "DT_FLOAT"}}}, {"name": "StatefulPartitionedCall/functional_113_1/efficientnetb2_1/top_conv_1/convolution/merged_input", "op": "Const", "attr": {"value": {"tensor": {"dtype": "DT_FLOAT", "tensorShape": {"dim": [{"size": "1"}, {"size": "1"}, {"size": "352"}, {"size": "1408"}]}}}, "dtype": {"type": "DT_FLOAT"}}}, {"name": "StatefulPartitionedCall/functional_113_1/efficientnetb2_1/top_bn_1/batchnorm/sub", "op": "Const", "attr": {"value": {"tensor": {"dtype": "DT_FLOAT", "tensorShape": {"dim": [{"size": "1"}, {"size": "1"}, {"size": "1"}, {"size": "1408"}]}}}, "dtype": {"type": "DT_FLOAT"}}}, {"name": "StatefulPartitionedCall/functional_113_1/global_average_pooling2d_1/Mean/reduction_indices", "op": "Const", "attr": {"value": {"tensor": {"dtype": "DT_INT32", "tensorShape": {"dim": [{"size": "2"}]}}}, "dtype": {"type": "DT_INT32"}}}, {"name": "StatefulPartitionedCall/functional_113_1/batch_normalization_1/batchnorm/mul", "op": "Const", "attr": {"value": {"tensor": {"dtype": "DT_FLOAT", "tensorShape": {"dim": [{"size": "1408"}]}}}, "dtype": {"type": "DT_FLOAT"}}}, {"name": "StatefulPartitionedCall/functional_113_1/batch_normalization_1/batchnorm/sub", "op": "Const", "attr": {"value": {"tensor": {"dtype": "DT_FLOAT", "tensorShape": {"dim": [{"size": "1408"}]}}}, "dtype": {"type": "DT_FLOAT"}}}, {"name": "StatefulPartitionedCall/functional_113_1/dense_1/Cast/ReadVariableOp", "op": "Const", "attr": {"value": {"tensor": {"dtype": "DT_FLOAT", "tensorShape": {"dim": [{"size": "1408"}, {"size": "256"}]}}}, "dtype": {"type": "DT_FLOAT"}}}, {"name": "StatefulPartitionedCall/functional_113_1/dense_1/BiasAdd/ReadVariableOp", "op": "Const", "attr": {"value": {"tensor": {"dtype": "DT_FLOAT", "tensorShape": {"dim": [{"size": "256"}]}}}, "dtype": {"type": "DT_FLOAT"}}}, {"name": "StatefulPartitionedCall/functional_113_1/batch_normalization_1_2/batchnorm/mul", "op": "Const", "attr": {"value": {"tensor": {"dtype": "DT_FLOAT", "tensorShape": {"dim": [{"size": "256"}]}}}, "dtype": {"type": "DT_FLOAT"}}}, {"name": "StatefulPartitionedCall/functional_113_1/batch_normalization_1_2/batchnorm/sub", "op": "Const", "attr": {"value": {"tensor": {"dtype": "DT_FLOAT", "tensorShape": {"dim": [{"size": "256"}]}}}, "dtype": {"type": "DT_FLOAT"}}}, {"name": "StatefulPartitionedCall/functional_113_1/dense_1_2/Cast/ReadVariableOp", "op": "Const", "attr": {"value": {"tensor": {"dtype": "DT_FLOAT", "tensorShape": {"dim": [{"size": "256"}, {"size": "7"}]}}}, "dtype": {"type": "DT_FLOAT"}}}, {"name": "StatefulPartitionedCall/functional_113_1/dense_1_2/BiasAdd/ReadVariableOp", "op": "Const", "attr": {"value": {"tensor": {"dtype": "DT_FLOAT", "tensorShape": {"dim": [{"size": "7"}]}}}, "dtype": {"type": "DT_FLOAT"}}}, {"name": "keras_tensor_6226", "op": "Placeholder", "attr": {"shape": {"shape": {"dim": [{"size": "-1"}, {"size": "300"}, {"size": "300"}, {"size": "3"}]}}, "dtype": {"type": "DT_FLOAT"}}}, {"name": "StatefulPartitionedCall/functional_113_1/efficientnetb2_1/rescaling_1/mul", "op": "Mul", "input": ["keras_tensor_6226", "StatefulPartitionedCall/functional_113_1/efficientnetb2_1/rescaling_1/Cast/x"], "attr": {"T": {"type": "DT_FLOAT"}}}, {"name": "StatefulPartitionedCall/functional_113_1/efficientnetb2_1/normalization_1/Sub", "op": "Add", "input": ["StatefulPartitionedCall/functional_113_1/efficientnetb2_1/rescaling_1/mul", "StatefulPartitionedCall/functional_113_1/efficientnetb2_1/rescaling_1/add"], "attr": {"T": {"type": "DT_FLOAT"}}}, {"name": "StatefulPartitionedCall/functional_113_1/efficientnetb2_1/rescaling_1_2/mul", "op": "Mul", "input": ["StatefulPartitionedCall/functional_113_1/efficientnetb2_1/normalization_1/Sub", "StatefulPartitionedCall/functional_113_1/efficientnetb2_1/normalization_1/truediv"], "attr": {"T": {"type": "DT_FLOAT"}}}, {"name": "StatefulPartitionedCall/functional_113_1/efficientnetb2_1/rescaling_1_2/add", "op": "AddV2", "input": ["StatefulPartitionedCall/functional_113_1/efficientnetb2_1/rescaling_1_2/mul", "StatefulPartitionedCall/functional_113_1/efficientnetb2_1/rescaling_1_2/Cast_1/x"], "attr": {"T": {"type": "DT_FLOAT"}}}, {"name": "StatefulPartitionedCall/functional_113_1/efficientnetb2_1/stem_conv_pad_1/Pad", "op": "Pad", "input": ["StatefulPartitionedCall/functional_113_1/efficientnetb2_1/rescaling_1_2/add", "StatefulPartitionedCall/functional_113_1/efficientnetb2_1/stem_conv_pad_1/Const"], "attr": {"Tpaddings": {"type": "DT_INT32"}, "T": {"type": "DT_FLOAT"}}}, {"name": "StatefulPartitionedCall/functional_113_1/efficientnetb2_1/stem_bn_1/batchnorm/add_1", "op": "_FusedConv2D", "input": ["StatefulPartitionedCall/functional_113_1/efficientnetb2_1/stem_conv_pad_1/Pad", "StatefulPartitionedCall/functional_113_1/efficientnetb2_1/stem_conv_1/convolution/merged_input", "StatefulPartitionedCall/functional_113_1/efficientnetb2_1/stem_bn_1/batchnorm/sub"], "device": "/device:CPU:0", "attr": {"num_host_args": {"i": "0"}, "data_format": {"s": "TkhXQw=="}, "filter_format": {"s": "SFdJTw=="}, "strides": {"list": {"i": ["1", "2", "2", "1"]}}, "num_args": {"i": "1"}, "fused_ops": {"list": {"s": ["Qmlhc0FkZA=="]}}, "TArgs": {"list": {"type": ["DT_FLOAT"]}}, "padding": {"s": "VkFMSUQ="}, "use_cudnn_on_gpu": {"b": true}, "leakyrelu_alpha": {"f": 0.2}, "epsilon": {"f": 0.0}, "T": {"type": "DT_FLOAT"}, "explicit_paddings": {"list": {}}, "dilations": {"list": {"i": ["1", "1", "1", "1"]}}}}, {"name": "StatefulPartitionedCall/functional_113_1/efficientnetb2_1/stem_activation_1/Sigmoid", "op": "Sigmoid", "input": ["StatefulPartitionedCall/functional_113_1/efficientnetb2_1/stem_bn_1/batchnorm/add_1"], "attr": {"T": {"type": "DT_FLOAT"}}}, {"name": "StatefulPartitionedCall/functional_113_1/efficientnetb2_1/stem_activation_1/mul_1", "op": "Mul", "input": ["StatefulPartitionedCall/functional_113_1/efficientnetb2_1/stem_bn_1/batchnorm/add_1", "StatefulPartitionedCall/functional_113_1/efficientnetb2_1/stem_activation_1/Sigmoid"], "attr": {"T": {"type": "DT_FLOAT"}}}, {"name": "StatefulPartitionedCall/functional_113_1/efficientnetb2_1/block1a_dwconv_1/depthwise", "op": "DepthwiseConv2dNative", "input": ["StatefulPartitionedCall/functional_113_1/efficientnetb2_1/stem_activation_1/mul_1", "StatefulPartitionedCall/functional_113_1/efficientnetb2_1/block1a_dwconv_1/depthwise/ReadVariableOp"], "attr": {"padding": {"s": "U0FNRQ=="}, "data_format": {"s": "TkhXQw=="}, "T": {"type": "DT_FLOAT"}, "explicit_paddings": {"list": {}}, "dilations": {"list": {"i": ["1", "1", "1", "1"]}}, "strides": {"list": {"i": ["1", "1", "1", "1"]}}}}, {"name": "StatefulPartitionedCall/functional_113_1/efficientnetb2_1/block1a_bn_1/batchnorm/mul_1", "op": "Mul", "input": ["StatefulPartitionedCall/functional_113_1/efficientnetb2_1/block1a_dwconv_1/depthwise", "StatefulPartitionedCall/functional_113_1/efficientnetb2_1/block1a_bn_1/batchnorm/mul"], "attr": {"T": {"type": "DT_FLOAT"}}}, {"name": "StatefulPartitionedCall/functional_113_1/efficientnetb2_1/block1a_bn_1/batchnorm/add_1", "op": "AddV2", "input": ["StatefulPartitionedCall/functional_113_1/efficientnetb2_1/block1a_bn_1/batchnorm/mul_1", "StatefulPartitionedCall/functional_113_1/efficientnetb2_1/block1a_bn_1/batchnorm/sub"], "attr": {"T": {"type": "DT_FLOAT"}}}, {"name": "StatefulPartitionedCall/functional_113_1/efficientnetb2_1/block1a_activation_1/Sigmoid", "op": "Sigmoid", "input": ["StatefulPartitionedCall/functional_113_1/efficientnetb2_1/block1a_bn_1/batchnorm/add_1"], "attr": {"T": {"type": "DT_FLOAT"}}}, {"name": "StatefulPartitionedCall/functional_113_1/efficientnetb2_1/block1a_activation_1/mul_1", "op": "Mul", "input": ["StatefulPartitionedCall/functional_113_1/efficientnetb2_1/block1a_bn_1/batchnorm/add_1", "StatefulPartitionedCall/functional_113_1/efficientnetb2_1/block1a_activation_1/Sigmoid"], "attr": {"T": {"type": "DT_FLOAT"}}}, {"name": "StatefulPartitionedCall/functional_113_1/efficientnetb2_1/block1a_se_squeeze_1/Mean", "op": "Mean", "input": ["StatefulPartitionedCall/functional_113_1/efficientnetb2_1/block1a_activation_1/mul_1", "StatefulPartitionedCall/functional_113_1/efficientnetb2_1/block1a_se_squeeze_1/Mean/reduction_indices"], "attr": {"T": {"type": "DT_FLOAT"}, "Tidx": {"type": "DT_INT32"}, "keep_dims": {"b": false}}}, {"name": "StatefulPartitionedCall/functional_113_1/efficientnetb2_1/block1a_se_reshape_1/Shape", "op": "Shape", "input": ["StatefulPartitionedCall/functional_113_1/efficientnetb2_1/block1a_se_squeeze_1/Mean"], "attr": {"T": {"type": "DT_FLOAT"}, "out_type": {"type": "DT_INT32"}}, "experimentalType": {"typeId": "TFT_PRODUCT", "args": [{"typeId": "TFT_SHAPE_TENSOR", "args": [{"typeId": "TFT_INT32"}]}]}}, {"name": "StatefulPartitionedCall/functional_113_1/efficientnetb2_1/block1a_se_reshape_1/strided_slice", "op": "StridedSlice", "input": ["StatefulPartitionedCall/functional_113_1/efficientnetb2_1/block1a_se_reshape_1/Shape", "StatefulPartitionedCall/functional_113_1/efficientnetb2_1/block1a_se_reshape_1/strided_slice/stack", "StatefulPartitionedCall/functional_113_1/efficientnetb2_1/block1a_se_reshape_1/strided_slice/stack_1", "StatefulPartitionedCall/functional_113_1/efficientnetb2_1/block1a_se_reshape_1/strided_slice/stack_2"], "attr": {"shrink_axis_mask": {"i": "1"}, "new_axis_mask": {"i": "0"}, "Index": {"type": "DT_INT32"}, "begin_mask": {"i": "0"}, "T": {"type": "DT_INT32"}, "end_mask": {"i": "0"}, "ellipsis_mask": {"i": "0"}}}, {"name": "StatefulPartitionedCall/functional_113_1/efficientnetb2_1/block1a_se_reshape_1/Reshape/shape", "op": "Pack", "input": ["StatefulPartitionedCall/functional_113_1/efficientnetb2_1/block1a_se_reshape_1/strided_slice", "StatefulPartitionedCall/functional_113_1/efficientnetb2_1/block1a_se_reshape_1/Reshape/shape/1", "StatefulPartitionedCall/functional_113_1/efficientnetb2_1/block1a_se_reshape_1/Reshape/shape/2", "StatefulPartitionedCall/functional_113_1/efficientnetb2_1/block1a_se_reshape_1/Reshape/shape/3"], "attr": {"N": {"i": "4"}, "axis": {"i": "0"}, "T": {"type": "DT_INT32"}}}, {"name": "StatefulPartitionedCall/functional_113_1/efficientnetb2_1/block1a_se_reshape_1/Reshape", "op": "Reshape", "input": ["StatefulPartitionedCall/functional_113_1/efficientnetb2_1/block1a_se_squeeze_1/Mean", "StatefulPartitionedCall/functional_113_1/efficientnetb2_1/block1a_se_reshape_1/Reshape/shape"], "attr": {"T": {"type": "DT_FLOAT"}, "Tshape": {"type": "DT_INT32"}}}, {"name": "StatefulPartitionedCall/functional_113_1/efficientnetb2_1/block1a_se_reduce_1/BiasAdd", "op": "_FusedConv2D", "input": ["StatefulPartitionedCall/functional_113_1/efficientnetb2_1/block1a_se_reshape_1/Reshape", "StatefulPartitionedCall/functional_113_1/efficientnetb2_1/block1a_se_reduce_1/convolution/ReadVariableOp", "StatefulPartitionedCall/functional_113_1/efficientnetb2_1/block1a_se_reduce_1/Squeeze"], "device": "/device:CPU:0", "attr": {"num_host_args": {"i": "0"}, "data_format": {"s": "TkhXQw=="}, "filter_format": {"s": "SFdJTw=="}, "fused_ops": {"list": {"s": ["Qmlhc0FkZA=="]}}, "num_args": {"i": "1"}, "strides": {"list": {"i": ["1", "1", "1", "1"]}}, "TArgs": {"list": {"type": ["DT_FLOAT"]}}, "padding": {"s": "U0FNRQ=="}, "use_cudnn_on_gpu": {"b": true}, "leakyrelu_alpha": {"f": 0.2}, "epsilon": {"f": 0.0}, "T": {"type": "DT_FLOAT"}, "explicit_paddings": {"list": {}}, "dilations": {"list": {"i": ["1", "1", "1", "1"]}}}}, {"name": "StatefulPartitionedCall/functional_113_1/efficientnetb2_1/block1a_se_reduce_1/Sigmoid", "op": "Sigmoid", "input": ["StatefulPartitionedCall/functional_113_1/efficientnetb2_1/block1a_se_reduce_1/BiasAdd"], "attr": {"T": {"type": "DT_FLOAT"}}}, {"name": "StatefulPartitionedCall/functional_113_1/efficientnetb2_1/block1a_se_reduce_1/mul_1", "op": "Mul", "input": ["StatefulPartitionedCall/functional_113_1/efficientnetb2_1/block1a_se_reduce_1/BiasAdd", "StatefulPartitionedCall/functional_113_1/efficientnetb2_1/block1a_se_reduce_1/Sigmoid"], "attr": {"T": {"type": "DT_FLOAT"}}}, {"name": "StatefulPartitionedCall/functional_113_1/efficientnetb2_1/block1a_se_expand_1/BiasAdd", "op": "_FusedConv2D", "input": ["StatefulPartitionedCall/functional_113_1/efficientnetb2_1/block1a_se_reduce_1/mul_1", "StatefulPartitionedCall/functional_113_1/efficientnetb2_1/block1a_se_expand_1/convolution/ReadVariableOp", "StatefulPartitionedCall/functional_113_1/efficientnetb2_1/block1a_se_expand_1/Squeeze"], "device": "/device:CPU:0", "attr": {"num_host_args": {"i": "0"}, "data_format": {"s": "TkhXQw=="}, "filter_format": {"s": "SFdJTw=="}, "fused_ops": {"list": {"s": ["Qmlhc0FkZA=="]}}, "num_args": {"i": "1"}, "strides": {"list": {"i": ["1", "1", "1", "1"]}}, "TArgs": {"list": {"type": ["DT_FLOAT"]}}, "padding": {"s": "U0FNRQ=="}, "use_cudnn_on_gpu": {"b": true}, "leakyrelu_alpha": {"f": 0.2}, "epsilon": {"f": 0.0}, "T": {"type": "DT_FLOAT"}, "explicit_paddings": {"list": {}}, "dilations": {"list": {"i": ["1", "1", "1", "1"]}}}}, {"name": "StatefulPartitionedCall/functional_113_1/efficientnetb2_1/block1a_se_expand_1/Sigmoid", "op": "Sigmoid", "input": ["StatefulPartitionedCall/functional_113_1/efficientnetb2_1/block1a_se_expand_1/BiasAdd"], "attr": {"T": {"type": "DT_FLOAT"}}}, {"name": "StatefulPartitionedCall/functional_113_1/efficientnetb2_1/block1a_se_excite_1/Mul", "op": "Mul", "input": ["StatefulPartitionedCall/functional_113_1/efficientnetb2_1/block1a_activation_1/mul_1", "StatefulPartitionedCall/functional_113_1/efficientnetb2_1/block1a_se_expand_1/Sigmoid"], "attr": {"T": {"type": "DT_FLOAT"}}}, {"name": "StatefulPartitionedCall/functional_113_1/efficientnetb2_1/block1a_project_bn_1/batchnorm/add_1", "op": "_FusedConv2D", "input": ["StatefulPartitionedCall/functional_113_1/efficientnetb2_1/block1a_se_excite_1/Mul", "StatefulPartitionedCall/functional_113_1/efficientnetb2_1/block1a_project_conv_1/convolution/merged_input", "StatefulPartitionedCall/functional_113_1/efficientnetb2_1/block1a_project_bn_1/batchnorm/sub"], "device": "/device:CPU:0", "attr": {"num_host_args": {"i": "0"}, "data_format": {"s": "TkhXQw=="}, "filter_format": {"s": "SFdJTw=="}, "strides": {"list": {"i": ["1", "1", "1", "1"]}}, "num_args": {"i": "1"}, "fused_ops": {"list": {"s": ["Qmlhc0FkZA=="]}}, "TArgs": {"list": {"type": ["DT_FLOAT"]}}, "padding": {"s": "U0FNRQ=="}, "use_cudnn_on_gpu": {"b": true}, "leakyrelu_alpha": {"f": 0.2}, "epsilon": {"f": 0.0}, "T": {"type": "DT_FLOAT"}, "explicit_paddings": {"list": {}}, "dilations": {"list": {"i": ["1", "1", "1", "1"]}}}}, {"name": "StatefulPartitionedCall/functional_113_1/efficientnetb2_1/block1b_dwconv_1/depthwise", "op": "DepthwiseConv2dNative", "input": ["StatefulPartitionedCall/functional_113_1/efficientnetb2_1/block1a_project_bn_1/batchnorm/add_1", "StatefulPartitionedCall/functional_113_1/efficientnetb2_1/block1b_dwconv_1/depthwise/ReadVariableOp"], "attr": {"padding": {"s": "U0FNRQ=="}, "data_format": {"s": "TkhXQw=="}, "T": {"type": "DT_FLOAT"}, "explicit_paddings": {"list": {}}, "dilations": {"list": {"i": ["1", "1", "1", "1"]}}, "strides": {"list": {"i": ["1", "1", "1", "1"]}}}}, {"name": "StatefulPartitionedCall/functional_113_1/efficientnetb2_1/block1b_bn_1/batchnorm/mul_1", "op": "Mul", "input": ["StatefulPartitionedCall/functional_113_1/efficientnetb2_1/block1b_dwconv_1/depthwise", "StatefulPartitionedCall/functional_113_1/efficientnetb2_1/block1b_bn_1/batchnorm/mul"], "attr": {"T": {"type": "DT_FLOAT"}}}, {"name": "StatefulPartitionedCall/functional_113_1/efficientnetb2_1/block1b_bn_1/batchnorm/add_1", "op": "AddV2", "input": ["StatefulPartitionedCall/functional_113_1/efficientnetb2_1/block1b_bn_1/batchnorm/mul_1", "StatefulPartitionedCall/functional_113_1/efficientnetb2_1/block1b_bn_1/batchnorm/sub"], "attr": {"T": {"type": "DT_FLOAT"}}}, {"name": "StatefulPartitionedCall/functional_113_1/efficientnetb2_1/block1b_activation_1/Sigmoid", "op": "Sigmoid", "input": ["StatefulPartitionedCall/functional_113_1/efficientnetb2_1/block1b_bn_1/batchnorm/add_1"], "attr": {"T": {"type": "DT_FLOAT"}}}, {"name": "StatefulPartitionedCall/functional_113_1/efficientnetb2_1/block1b_activation_1/mul_1", "op": "Mul", "input": ["StatefulPartitionedCall/functional_113_1/efficientnetb2_1/block1b_bn_1/batchnorm/add_1", "StatefulPartitionedCall/functional_113_1/efficientnetb2_1/block1b_activation_1/Sigmoid"], "attr": {"T": {"type": "DT_FLOAT"}}}, {"name": "StatefulPartitionedCall/functional_113_1/efficientnetb2_1/block1b_se_squeeze_1/Mean", "op": "Mean", "input": ["StatefulPartitionedCall/functional_113_1/efficientnetb2_1/block1b_activation_1/mul_1", "StatefulPartitionedCall/functional_113_1/efficientnetb2_1/block1b_se_squeeze_1/Mean/reduction_indices"], "attr": {"Tidx": {"type": "DT_INT32"}, "T": {"type": "DT_FLOAT"}, "keep_dims": {"b": false}}}, {"name": "StatefulPartitionedCall/functional_113_1/efficientnetb2_1/block1b_se_reshape_1/Shape", "op": "Shape", "input": ["StatefulPartitionedCall/functional_113_1/efficientnetb2_1/block1b_se_squeeze_1/Mean"], "attr": {"T": {"type": "DT_FLOAT"}, "out_type": {"type": "DT_INT32"}}, "experimentalType": {"typeId": "TFT_PRODUCT", "args": [{"typeId": "TFT_SHAPE_TENSOR", "args": [{"typeId": "TFT_INT32"}]}]}}, {"name": "StatefulPartitionedCall/functional_113_1/efficientnetb2_1/block1b_se_reshape_1/strided_slice", "op": "StridedSlice", "input": ["StatefulPartitionedCall/functional_113_1/efficientnetb2_1/block1b_se_reshape_1/Shape", "StatefulPartitionedCall/functional_113_1/efficientnetb2_1/block1b_se_reshape_1/strided_slice/stack", "StatefulPartitionedCall/functional_113_1/efficientnetb2_1/block1b_se_reshape_1/strided_slice/stack_1", "StatefulPartitionedCall/functional_113_1/efficientnetb2_1/block1b_se_reshape_1/strided_slice/stack_2"], "attr": {"shrink_axis_mask": {"i": "1"}, "Index": {"type": "DT_INT32"}, "new_axis_mask": {"i": "0"}, "begin_mask": {"i": "0"}, "T": {"type": "DT_INT32"}, "end_mask": {"i": "0"}, "ellipsis_mask": {"i": "0"}}}, {"name": "StatefulPartitionedCall/functional_113_1/efficientnetb2_1/block1b_se_reshape_1/Reshape/shape", "op": "Pack", "input": ["StatefulPartitionedCall/functional_113_1/efficientnetb2_1/block1b_se_reshape_1/strided_slice", "StatefulPartitionedCall/functional_113_1/efficientnetb2_1/block1b_se_reshape_1/Reshape/shape/1", "StatefulPartitionedCall/functional_113_1/efficientnetb2_1/block1b_se_reshape_1/Reshape/shape/2", "StatefulPartitionedCall/functional_113_1/efficientnetb2_1/block1b_se_reshape_1/Reshape/shape/3"], "attr": {"N": {"i": "4"}, "axis": {"i": "0"}, "T": {"type": "DT_INT32"}}}, {"name": "StatefulPartitionedCall/functional_113_1/efficientnetb2_1/block1b_se_reshape_1/Reshape", "op": "Reshape", "input": ["StatefulPartitionedCall/functional_113_1/efficientnetb2_1/block1b_se_squeeze_1/Mean", "StatefulPartitionedCall/functional_113_1/efficientnetb2_1/block1b_se_reshape_1/Reshape/shape"], "attr": {"T": {"type": "DT_FLOAT"}, "Tshape": {"type": "DT_INT32"}}}, {"name": "StatefulPartitionedCall/functional_113_1/efficientnetb2_1/block1b_se_reduce_1/BiasAdd", "op": "_FusedConv2D", "input": ["StatefulPartitionedCall/functional_113_1/efficientnetb2_1/block1b_se_reshape_1/Reshape", "StatefulPartitionedCall/functional_113_1/efficientnetb2_1/block1b_se_reduce_1/convolution/ReadVariableOp", "StatefulPartitionedCall/functional_113_1/efficientnetb2_1/block1b_se_reduce_1/Squeeze"], "device": "/device:CPU:0", "attr": {"num_host_args": {"i": "0"}, "data_format": {"s": "TkhXQw=="}, "filter_format": {"s": "SFdJTw=="}, "strides": {"list": {"i": ["1", "1", "1", "1"]}}, "num_args": {"i": "1"}, "fused_ops": {"list": {"s": ["Qmlhc0FkZA=="]}}, "TArgs": {"list": {"type": ["DT_FLOAT"]}}, "padding": {"s": "U0FNRQ=="}, "use_cudnn_on_gpu": {"b": true}, "leakyrelu_alpha": {"f": 0.2}, "epsilon": {"f": 0.0}, "T": {"type": "DT_FLOAT"}, "explicit_paddings": {"list": {}}, "dilations": {"list": {"i": ["1", "1", "1", "1"]}}}}, {"name": "StatefulPartitionedCall/functional_113_1/efficientnetb2_1/block1b_se_reduce_1/Sigmoid", "op": "Sigmoid", "input": ["StatefulPartitionedCall/functional_113_1/efficientnetb2_1/block1b_se_reduce_1/BiasAdd"], "attr": {"T": {"type": "DT_FLOAT"}}}, {"name": "StatefulPartitionedCall/functional_113_1/efficientnetb2_1/block1b_se_reduce_1/mul_1", "op": "Mul", "input": ["StatefulPartitionedCall/functional_113_1/efficientnetb2_1/block1b_se_reduce_1/BiasAdd", "StatefulPartitionedCall/functional_113_1/efficientnetb2_1/block1b_se_reduce_1/Sigmoid"], "attr": {"T": {"type": "DT_FLOAT"}}}, {"name": "StatefulPartitionedCall/functional_113_1/efficientnetb2_1/block1b_se_expand_1/BiasAdd", "op": "_FusedConv2D", "input": ["StatefulPartitionedCall/functional_113_1/efficientnetb2_1/block1b_se_reduce_1/mul_1", "StatefulPartitionedCall/functional_113_1/efficientnetb2_1/block1b_se_expand_1/convolution/ReadVariableOp", "StatefulPartitionedCall/functional_113_1/efficientnetb2_1/block1b_se_expand_1/Squeeze"], "device": "/device:CPU:0", "attr": {"num_host_args": {"i": "0"}, "data_format": {"s": "TkhXQw=="}, "filter_format": {"s": "SFdJTw=="}, "fused_ops": {"list": {"s": ["Qmlhc0FkZA=="]}}, "num_args": {"i": "1"}, "strides": {"list": {"i": ["1", "1", "1", "1"]}}, "TArgs": {"list": {"type": ["DT_FLOAT"]}}, "padding": {"s": "U0FNRQ=="}, "use_cudnn_on_gpu": {"b": true}, "leakyrelu_alpha": {"f": 0.2}, "epsilon": {"f": 0.0}, "T": {"type": "DT_FLOAT"}, "explicit_paddings": {"list": {}}, "dilations": {"list": {"i": ["1", "1", "1", "1"]}}}}, {"name": "StatefulPartitionedCall/functional_113_1/efficientnetb2_1/block1b_se_expand_1/Sigmoid", "op": "Sigmoid", "input": ["StatefulPartitionedCall/functional_113_1/efficientnetb2_1/block1b_se_expand_1/BiasAdd"], "attr": {"T": {"type": "DT_FLOAT"}}}, {"name": "StatefulPartitionedCall/functional_113_1/efficientnetb2_1/block1b_se_excite_1/Mul", "op": "Mul", "input": ["StatefulPartitionedCall/functional_113_1/efficientnetb2_1/block1b_activation_1/mul_1", "StatefulPartitionedCall/functional_113_1/efficientnetb2_1/block1b_se_expand_1/Sigmoid"], "attr": {"T": {"type": "DT_FLOAT"}}}, {"name": "StatefulPartitionedCall/functional_113_1/efficientnetb2_1/block1b_project_bn_1/batchnorm/mul_1", "op": "Conv2D", "input": ["StatefulPartitionedCall/functional_113_1/efficientnetb2_1/block1b_se_excite_1/Mul", "StatefulPartitionedCall/functional_113_1/efficientnetb2_1/block1b_project_conv_1/convolution/merged_input"], "device": "/device:CPU:0", "attr": {"padding": {"s": "U0FNRQ=="}, "data_format": {"s": "TkhXQw=="}, "strides": {"list": {"i": ["1", "1", "1", "1"]}}, "use_cudnn_on_gpu": {"b": true}, "T": {"type": "DT_FLOAT"}, "explicit_paddings": {"list": {}}, "dilations": {"list": {"i": ["1", "1", "1", "1"]}}}}, {"name": "StatefulPartitionedCall/functional_113_1/efficientnetb2_1/block1b_add_1/ArithmeticOptimizer/AddOpsRewrite_Leaf_1_Add", "op": "AddN", "input": ["StatefulPartitionedCall/functional_113_1/efficientnetb2_1/block1b_project_bn_1/batchnorm/mul_1", "StatefulPartitionedCall/functional_113_1/efficientnetb2_1/block1a_project_bn_1/batchnorm/add_1"], "attr": {"N": {"i": "2"}, "T": {"type": "DT_FLOAT"}, "_grappler_ArithmeticOptimizer_AddOpsRewriteStage": {"b": true}}}, {"name": "StatefulPartitionedCall/functional_113_1/efficientnetb2_1/block1b_add_1/ArithmeticOptimizer/AddOpsRewrite_Add", "op": "AddV2", "input": ["StatefulPartitionedCall/functional_113_1/efficientnetb2_1/block1b_project_bn_1/batchnorm/sub", "StatefulPartitionedCall/functional_113_1/efficientnetb2_1/block1b_add_1/ArithmeticOptimizer/AddOpsRewrite_Leaf_1_Add"], "attr": {"T": {"type": "DT_FLOAT"}, "_grappler_ArithmeticOptimizer_AddOpsRewriteStage": {"b": true}}}, {"name": "StatefulPartitionedCall/functional_113_1/efficientnetb2_1/block2a_expand_bn_1/batchnorm/add_1", "op": "_FusedConv2D", "input": ["StatefulPartitionedCall/functional_113_1/efficientnetb2_1/block1b_add_1/ArithmeticOptimizer/AddOpsRewrite_Add", "StatefulPartitionedCall/functional_113_1/efficientnetb2_1/block2a_expand_conv_1/convolution/merged_input", "StatefulPartitionedCall/functional_113_1/efficientnetb2_1/block2a_expand_bn_1/batchnorm/sub"], "device": "/device:CPU:0", "attr": {"num_host_args": {"i": "0"}, "data_format": {"s": "TkhXQw=="}, "filter_format": {"s": "SFdJTw=="}, "strides": {"list": {"i": ["1", "1", "1", "1"]}}, "num_args": {"i": "1"}, "fused_ops": {"list": {"s": ["Qmlhc0FkZA=="]}}, "TArgs": {"list": {"type": ["DT_FLOAT"]}}, "padding": {"s": "U0FNRQ=="}, "use_cudnn_on_gpu": {"b": true}, "leakyrelu_alpha": {"f": 0.2}, "epsilon": {"f": 0.0}, "T": {"type": "DT_FLOAT"}, "explicit_paddings": {"list": {}}, "dilations": {"list": {"i": ["1", "1", "1", "1"]}}}}, {"name": "StatefulPartitionedCall/functional_113_1/efficientnetb2_1/block2a_expand_activation_1/Sigmoid", "op": "Sigmoid", "input": ["StatefulPartitionedCall/functional_113_1/efficientnetb2_1/block2a_expand_bn_1/batchnorm/add_1"], "attr": {"T": {"type": "DT_FLOAT"}}}, {"name": "StatefulPartitionedCall/functional_113_1/efficientnetb2_1/block2a_expand_activation_1/mul_1", "op": "Mul", "input": ["StatefulPartitionedCall/functional_113_1/efficientnetb2_1/block2a_expand_bn_1/batchnorm/add_1", "StatefulPartitionedCall/functional_113_1/efficientnetb2_1/block2a_expand_activation_1/Sigmoid"], "attr": {"T": {"type": "DT_FLOAT"}}}, {"name": "StatefulPartitionedCall/functional_113_1/efficientnetb2_1/block2a_dwconv_pad_1/Pad", "op": "Pad", "input": ["StatefulPartitionedCall/functional_113_1/efficientnetb2_1/block2a_expand_activation_1/mul_1", "StatefulPartitionedCall/functional_113_1/efficientnetb2_1/block2a_dwconv_pad_1/Const"], "attr": {"Tpaddings": {"type": "DT_INT32"}, "T": {"type": "DT_FLOAT"}}}, {"name": "StatefulPartitionedCall/functional_113_1/efficientnetb2_1/block2a_dwconv_1/depthwise", "op": "DepthwiseConv2dNative", "input": ["StatefulPartitionedCall/functional_113_1/efficientnetb2_1/block2a_dwconv_pad_1/Pad", "StatefulPartitionedCall/functional_113_1/efficientnetb2_1/block2a_dwconv_1/depthwise/ReadVariableOp"], "attr": {"padding": {"s": "VkFMSUQ="}, "data_format": {"s": "TkhXQw=="}, "T": {"type": "DT_FLOAT"}, "explicit_paddings": {"list": {}}, "dilations": {"list": {"i": ["1", "1", "1", "1"]}}, "strides": {"list": {"i": ["1", "2", "2", "1"]}}}}, {"name": "StatefulPartitionedCall/functional_113_1/efficientnetb2_1/block2a_bn_1/batchnorm/mul_1", "op": "Mul", "input": ["StatefulPartitionedCall/functional_113_1/efficientnetb2_1/block2a_dwconv_1/depthwise", "StatefulPartitionedCall/functional_113_1/efficientnetb2_1/block2a_bn_1/batchnorm/mul"], "attr": {"T": {"type": "DT_FLOAT"}}}, {"name": "StatefulPartitionedCall/functional_113_1/efficientnetb2_1/block2a_bn_1/batchnorm/add_1", "op": "AddV2", "input": ["StatefulPartitionedCall/functional_113_1/efficientnetb2_1/block2a_bn_1/batchnorm/mul_1", "StatefulPartitionedCall/functional_113_1/efficientnetb2_1/block2a_bn_1/batchnorm/sub"], "attr": {"T": {"type": "DT_FLOAT"}}}, {"name": "StatefulPartitionedCall/functional_113_1/efficientnetb2_1/block2a_activation_1/Sigmoid", "op": "Sigmoid", "input": ["StatefulPartitionedCall/functional_113_1/efficientnetb2_1/block2a_bn_1/batchnorm/add_1"], "attr": {"T": {"type": "DT_FLOAT"}}}, {"name": "StatefulPartitionedCall/functional_113_1/efficientnetb2_1/block2a_activation_1/mul_1", "op": "Mul", "input": ["StatefulPartitionedCall/functional_113_1/efficientnetb2_1/block2a_bn_1/batchnorm/add_1", "StatefulPartitionedCall/functional_113_1/efficientnetb2_1/block2a_activation_1/Sigmoid"], "attr": {"T": {"type": "DT_FLOAT"}}}, {"name": "StatefulPartitionedCall/functional_113_1/efficientnetb2_1/block2a_se_squeeze_1/Mean", "op": "Mean", "input": ["StatefulPartitionedCall/functional_113_1/efficientnetb2_1/block2a_activation_1/mul_1", "StatefulPartitionedCall/functional_113_1/efficientnetb2_1/block2a_se_squeeze_1/Mean/reduction_indices"], "attr": {"T": {"type": "DT_FLOAT"}, "Tidx": {"type": "DT_INT32"}, "keep_dims": {"b": false}}}, {"name": "StatefulPartitionedCall/functional_113_1/efficientnetb2_1/block2a_se_reshape_1/Shape", "op": "Shape", "input": ["StatefulPartitionedCall/functional_113_1/efficientnetb2_1/block2a_se_squeeze_1/Mean"], "attr": {"T": {"type": "DT_FLOAT"}, "out_type": {"type": "DT_INT32"}}, "experimentalType": {"typeId": "TFT_PRODUCT", "args": [{"typeId": "TFT_SHAPE_TENSOR", "args": [{"typeId": "TFT_INT32"}]}]}}, {"name": "StatefulPartitionedCall/functional_113_1/efficientnetb2_1/block2a_se_reshape_1/strided_slice", "op": "StridedSlice", "input": ["StatefulPartitionedCall/functional_113_1/efficientnetb2_1/block2a_se_reshape_1/Shape", "StatefulPartitionedCall/functional_113_1/efficientnetb2_1/block2a_se_reshape_1/strided_slice/stack", "StatefulPartitionedCall/functional_113_1/efficientnetb2_1/block2a_se_reshape_1/strided_slice/stack_1", "StatefulPartitionedCall/functional_113_1/efficientnetb2_1/block2a_se_reshape_1/strided_slice/stack_2"], "attr": {"shrink_axis_mask": {"i": "1"}, "new_axis_mask": {"i": "0"}, "Index": {"type": "DT_INT32"}, "begin_mask": {"i": "0"}, "end_mask": {"i": "0"}, "T": {"type": "DT_INT32"}, "ellipsis_mask": {"i": "0"}}}, {"name": "StatefulPartitionedCall/functional_113_1/efficientnetb2_1/block2a_se_reshape_1/Reshape/shape", "op": "Pack", "input": ["StatefulPartitionedCall/functional_113_1/efficientnetb2_1/block2a_se_reshape_1/strided_slice", "StatefulPartitionedCall/functional_113_1/efficientnetb2_1/block2a_se_reshape_1/Reshape/shape/1", "StatefulPartitionedCall/functional_113_1/efficientnetb2_1/block2a_se_reshape_1/Reshape/shape/2", "StatefulPartitionedCall/functional_113_1/efficientnetb2_1/block2a_se_reshape_1/Reshape/shape/3"], "attr": {"N": {"i": "4"}, "axis": {"i": "0"}, "T": {"type": "DT_INT32"}}}, {"name": "StatefulPartitionedCall/functional_113_1/efficientnetb2_1/block2a_se_reshape_1/Reshape", "op": "Reshape", "input": ["StatefulPartitionedCall/functional_113_1/efficientnetb2_1/block2a_se_squeeze_1/Mean", "StatefulPartitionedCall/functional_113_1/efficientnetb2_1/block2a_se_reshape_1/Reshape/shape"], "attr": {"T": {"type": "DT_FLOAT"}, "Tshape": {"type": "DT_INT32"}}}, {"name": "StatefulPartitionedCall/functional_113_1/efficientnetb2_1/block2a_se_reduce_1/BiasAdd", "op": "_FusedConv2D", "input": ["StatefulPartitionedCall/functional_113_1/efficientnetb2_1/block2a_se_reshape_1/Reshape", "StatefulPartitionedCall/functional_113_1/efficientnetb2_1/block2a_se_reduce_1/convolution/ReadVariableOp", "StatefulPartitionedCall/functional_113_1/efficientnetb2_1/block2a_se_reduce_1/Squeeze"], "device": "/device:CPU:0", "attr": {"num_host_args": {"i": "0"}, "data_format": {"s": "TkhXQw=="}, "filter_format": {"s": "SFdJTw=="}, "fused_ops": {"list": {"s": ["Qmlhc0FkZA=="]}}, "num_args": {"i": "1"}, "strides": {"list": {"i": ["1", "1", "1", "1"]}}, "TArgs": {"list": {"type": ["DT_FLOAT"]}}, "padding": {"s": "U0FNRQ=="}, "use_cudnn_on_gpu": {"b": true}, "leakyrelu_alpha": {"f": 0.2}, "epsilon": {"f": 0.0}, "T": {"type": "DT_FLOAT"}, "explicit_paddings": {"list": {}}, "dilations": {"list": {"i": ["1", "1", "1", "1"]}}}}, {"name": "StatefulPartitionedCall/functional_113_1/efficientnetb2_1/block2a_se_reduce_1/Sigmoid", "op": "Sigmoid", "input": ["StatefulPartitionedCall/functional_113_1/efficientnetb2_1/block2a_se_reduce_1/BiasAdd"], "attr": {"T": {"type": "DT_FLOAT"}}}, {"name": "StatefulPartitionedCall/functional_113_1/efficientnetb2_1/block2a_se_reduce_1/mul_1", "op": "Mul", "input": ["StatefulPartitionedCall/functional_113_1/efficientnetb2_1/block2a_se_reduce_1/BiasAdd", "StatefulPartitionedCall/functional_113_1/efficientnetb2_1/block2a_se_reduce_1/Sigmoid"], "attr": {"T": {"type": "DT_FLOAT"}}}, {"name": "StatefulPartitionedCall/functional_113_1/efficientnetb2_1/block2a_se_expand_1/BiasAdd", "op": "_FusedConv2D", "input": ["StatefulPartitionedCall/functional_113_1/efficientnetb2_1/block2a_se_reduce_1/mul_1", "StatefulPartitionedCall/functional_113_1/efficientnetb2_1/block2a_se_expand_1/convolution/ReadVariableOp", "StatefulPartitionedCall/functional_113_1/efficientnetb2_1/block2a_se_expand_1/Squeeze"], "device": "/device:CPU:0", "attr": {"num_host_args": {"i": "0"}, "data_format": {"s": "TkhXQw=="}, "filter_format": {"s": "SFdJTw=="}, "fused_ops": {"list": {"s": ["Qmlhc0FkZA=="]}}, "num_args": {"i": "1"}, "strides": {"list": {"i": ["1", "1", "1", "1"]}}, "TArgs": {"list": {"type": ["DT_FLOAT"]}}, "padding": {"s": "U0FNRQ=="}, "use_cudnn_on_gpu": {"b": true}, "leakyrelu_alpha": {"f": 0.2}, "epsilon": {"f": 0.0}, "T": {"type": "DT_FLOAT"}, "explicit_paddings": {"list": {}}, "dilations": {"list": {"i": ["1", "1", "1", "1"]}}}}, {"name": "StatefulPartitionedCall/functional_113_1/efficientnetb2_1/block2a_se_expand_1/Sigmoid", "op": "Sigmoid", "input": ["StatefulPartitionedCall/functional_113_1/efficientnetb2_1/block2a_se_expand_1/BiasAdd"], "attr": {"T": {"type": "DT_FLOAT"}}}, {"name": "StatefulPartitionedCall/functional_113_1/efficientnetb2_1/block2a_se_excite_1/Mul", "op": "Mul", "input": ["StatefulPartitionedCall/functional_113_1/efficientnetb2_1/block2a_activation_1/mul_1", "StatefulPartitionedCall/functional_113_1/efficientnetb2_1/block2a_se_expand_1/Sigmoid"], "attr": {"T": {"type": "DT_FLOAT"}}}, {"name": "StatefulPartitionedCall/functional_113_1/efficientnetb2_1/block2a_project_bn_1/batchnorm/add_1", "op": "_FusedConv2D", "input": ["StatefulPartitionedCall/functional_113_1/efficientnetb2_1/block2a_se_excite_1/Mul", "StatefulPartitionedCall/functional_113_1/efficientnetb2_1/block2a_project_conv_1/convolution/merged_input", "StatefulPartitionedCall/functional_113_1/efficientnetb2_1/block2a_project_bn_1/batchnorm/sub"], "device": "/device:CPU:0", "attr": {"num_host_args": {"i": "0"}, "data_format": {"s": "TkhXQw=="}, "filter_format": {"s": "SFdJTw=="}, "fused_ops": {"list": {"s": ["Qmlhc0FkZA=="]}}, "num_args": {"i": "1"}, "strides": {"list": {"i": ["1", "1", "1", "1"]}}, "TArgs": {"list": {"type": ["DT_FLOAT"]}}, "padding": {"s": "U0FNRQ=="}, "use_cudnn_on_gpu": {"b": true}, "leakyrelu_alpha": {"f": 0.2}, "epsilon": {"f": 0.0}, "T": {"type": "DT_FLOAT"}, "explicit_paddings": {"list": {}}, "dilations": {"list": {"i": ["1", "1", "1", "1"]}}}}, {"name": "StatefulPartitionedCall/functional_113_1/efficientnetb2_1/block2b_expand_bn_1/batchnorm/add_1", "op": "_FusedConv2D", "input": ["StatefulPartitionedCall/functional_113_1/efficientnetb2_1/block2a_project_bn_1/batchnorm/add_1", "StatefulPartitionedCall/functional_113_1/efficientnetb2_1/block2b_expand_conv_1/convolution/merged_input", "StatefulPartitionedCall/functional_113_1/efficientnetb2_1/block2b_expand_bn_1/batchnorm/sub"], "device": "/device:CPU:0", "attr": {"num_host_args": {"i": "0"}, "data_format": {"s": "TkhXQw=="}, "filter_format": {"s": "SFdJTw=="}, "strides": {"list": {"i": ["1", "1", "1", "1"]}}, "num_args": {"i": "1"}, "fused_ops": {"list": {"s": ["Qmlhc0FkZA=="]}}, "TArgs": {"list": {"type": ["DT_FLOAT"]}}, "padding": {"s": "U0FNRQ=="}, "use_cudnn_on_gpu": {"b": true}, "leakyrelu_alpha": {"f": 0.2}, "epsilon": {"f": 0.0}, "T": {"type": "DT_FLOAT"}, "explicit_paddings": {"list": {}}, "dilations": {"list": {"i": ["1", "1", "1", "1"]}}}}, {"name": "StatefulPartitionedCall/functional_113_1/efficientnetb2_1/block2b_expand_activation_1/Sigmoid", "op": "Sigmoid", "input": ["StatefulPartitionedCall/functional_113_1/efficientnetb2_1/block2b_expand_bn_1/batchnorm/add_1"], "attr": {"T": {"type": "DT_FLOAT"}}}, {"name": "StatefulPartitionedCall/functional_113_1/efficientnetb2_1/block2b_expand_activation_1/mul_1", "op": "Mul", "input": ["StatefulPartitionedCall/functional_113_1/efficientnetb2_1/block2b_expand_bn_1/batchnorm/add_1", "StatefulPartitionedCall/functional_113_1/efficientnetb2_1/block2b_expand_activation_1/Sigmoid"], "attr": {"T": {"type": "DT_FLOAT"}}}, {"name": "StatefulPartitionedCall/functional_113_1/efficientnetb2_1/block2b_dwconv_1/depthwise", "op": "DepthwiseConv2dNative", "input": ["StatefulPartitionedCall/functional_113_1/efficientnetb2_1/block2b_expand_activation_1/mul_1", "StatefulPartitionedCall/functional_113_1/efficientnetb2_1/block2b_dwconv_1/depthwise/ReadVariableOp"], "attr": {"padding": {"s": "U0FNRQ=="}, "data_format": {"s": "TkhXQw=="}, "T": {"type": "DT_FLOAT"}, "explicit_paddings": {"list": {}}, "dilations"…
name": "StatefulPartitionedCall/functional_113_1/efficientnetb2_1/block5d_expand_bn_1/batchnorm/sub", "shape": [1, 1, 1, 720], "dtype": "float32"}, {"name": "StatefulPartitionedCall/functional_113_1/efficientnetb2_1/block5d_dwconv_1/depthwise/ReadVariableOp", "shape": [5, 5, 720, 1], "dtype": "float32"}, {"name": "StatefulPartitionedCall/functional_113_1/efficientnetb2_1/block5d_bn_1/batchnorm/mul", "shape": [1, 1, 1, 720], "dtype": "float32"}, {"name": "StatefulPartitionedCall/functional_113_1/efficientnetb2_1/block5d_bn_1/batchnorm/sub", "shape": [1, 1, 1, 720], "dtype": "float32"}, {"name": "StatefulPartitionedCall/functional_113_1/efficientnetb2_1/block5d_se_squeeze_1/Mean/reduction_indices", "shape": [2], "dtype": "int32"}, {"name": "StatefulPartitionedCall/functional_113_1/efficientnetb2_1/block5d_se_reshape_1/strided_slice/stack", "shape": [1], "dtype": "int32"}, {"name": "StatefulPartitionedCall/functional_113_1/efficientnetb2_1/block5d_se_reshape_1/strided_slice/stack_1", "shape": [1], "dtype": "int32"}, {"name": "StatefulPartitionedCall/functional_113_1/efficientnetb2_1/block5d_se_reshape_1/strided_slice/stack_2", "shape": [1], "dtype": "int32"}, {"name": "StatefulPartitionedCall/functional_113_1/efficientnetb2_1/block5d_se_reshape_1/Reshape/shape/1", "shape": [], "dtype": "int32"}, {"name": "StatefulPartitionedCall/functional_113_1/efficientnetb2_1/block5d_se_reshape_1/Reshape/shape/2", "shape": [], "dtype": "int32"}, {"name": "StatefulPartitionedCall/functional_113_1/efficientnetb2_1/block5d_se_reshape_1/Reshape/shape/3", "shape": [], "dtype": "int32"}, {"name": "StatefulPartitionedCall/functional_113_1/efficientnetb2_1/block5d_se_reduce_1/convolution/ReadVariableOp", "shape": [1, 1, 720, 30], "dtype": "float32"}, {"name": "StatefulPartitionedCall/functional_113_1/efficientnetb2_1/block5d_se_reduce_1/Squeeze", "shape": [30], "dtype": "float32"}, {"name": "StatefulPartitionedCall/functional_113_1/efficientnetb2_1/block5d_se_expand_1/convolution/ReadVariableOp", "shape": [1, 1, 30, 720], "dtype": "float32"}, {"name": "StatefulPartitionedCall/functional_113_1/efficientnetb2_1/block5d_se_expand_1/Squeeze", "shape": [720], "dtype": "float32"}, {"name": "StatefulPartitionedCall/functional_113_1/efficientnetb2_1/block5d_project_conv_1/convolution/merged_input", "shape": [1, 1, 720, 120], "dtype": "float32"}, {"name": "StatefulPartitionedCall/functional_113_1/efficientnetb2_1/block5c_project_bn_1/batchnorm/sub", "shape": [1, 1, 1, 120], "dtype": "float32"}, {"name": "StatefulPartitionedCall/functional_113_1/efficientnetb2_1/block5c_expand_conv_1/convolution/merged_input", "shape": [1, 1, 120, 720], "dtype": "float32"}, {"name": "StatefulPartitionedCall/functional_113_1/efficientnetb2_1/block5c_expand_bn_1/batchnorm/sub", "shape": [1, 1, 1, 720], "dtype": "float32"}, {"name": "StatefulPartitionedCall/functional_113_1/efficientnetb2_1/block5c_dwconv_1/depthwise/ReadVariableOp", "shape": [5, 5, 720, 1], "dtype": "float32"}, {"name": "StatefulPartitionedCall/functional_113_1/efficientnetb2_1/block5c_bn_1/batchnorm/mul", "shape": [1, 1, 1, 720], "dtype": "float32"}, {"name": "StatefulPartitionedCall/functional_113_1/efficientnetb2_1/block5c_bn_1/batchnorm/sub", "shape": [1, 1, 1, 720], "dtype": "float32"}, {"name": "StatefulPartitionedCall/functional_113_1/efficientnetb2_1/block5c_se_squeeze_1/Mean/reduction_indices", "shape": [2], "dtype": "int32"}, {"name": "StatefulPartitionedCall/functional_113_1/efficientnetb2_1/block5c_se_reshape_1/strided_slice/stack", "shape": [1], "dtype": "int32"}, {"name": "StatefulPartitionedCall/functional_113_1/efficientnetb2_1/block5c_se_reshape_1/strided_slice/stack_1", "shape": [1], "dtype": "int32"}, {"name": "StatefulPartitionedCall/functional_113_1/efficientnetb2_1/block5c_se_reshape_1/strided_slice/stack_2", "shape": [1], "dtype": "int32"}, {"name": "StatefulPartitionedCall/functional_113_1/efficientnetb2_1/block5c_se_reshape_1/Reshape/shape/1", "shape": [], "dtype": "int32"}, {"name": "StatefulPartitionedCall/functional_113_1/efficientnetb2_1/block5c_se_reshape_1/Reshape/shape/2", "shape": [], "dtype": "int32"}, {"name": "StatefulPartitionedCall/functional_113_1/efficientnetb2_1/block5c_se_reshape_1/Reshape/shape/3", "shape": [], "dtype": "int32"}, {"name": "StatefulPartitionedCall/functional_113_1/efficientnetb2_1/block5c_se_reduce_1/convolution/ReadVariableOp", "shape": [1, 1, 720, 30], "dtype": "float32"}, {"name": "StatefulPartitionedCall/functional_113_1/efficientnetb2_1/block5c_se_reduce_1/Squeeze", "shape": [30], "dtype": "float32"}, {"name": "StatefulPartitionedCall/functional_113_1/efficientnetb2_1/block5c_se_expand_1/convolution/ReadVariableOp", "shape": [1, 1, 30, 720], "dtype": "float32"}, {"name": "StatefulPartitionedCall/functional_113_1/efficientnetb2_1/block5c_se_expand_1/Squeeze", "shape": [720], "dtype": "float32"}, {"name": "StatefulPartitionedCall/functional_113_1/efficientnetb2_1/block5c_project_conv_1/convolution/merged_input", "shape": [1, 1, 720, 120], "dtype": "float32"}, {"name": "StatefulPartitionedCall/functional_113_1/efficientnetb2_1/block5b_project_bn_1/batchnorm/sub", "shape": [1, 1, 1, 120], "dtype": "float32"}, {"name": "StatefulPartitionedCall/functional_113_1/efficientnetb2_1/block5b_expand_conv_1/convolution/merged_input", "shape": [1, 1, 120, 720], "dtype": "float32"}, {"name": "StatefulPartitionedCall/functional_113_1/efficientnetb2_1/block5b_expand_bn_1/batchnorm/sub", "shape": [1, 1, 1, 720], "dtype": "float32"}, {"name": "StatefulPartitionedCall/functional_113_1/efficientnetb2_1/block5b_dwconv_1/depthwise/ReadVariableOp", "shape": [5, 5, 720, 1], "dtype": "float32"}, {"name": "StatefulPartitionedCall/functional_113_1/efficientnetb2_1/block5b_bn_1/batchnorm/mul", "shape": [1, 1, 1, 720], "dtype": "float32"}, {"name": "StatefulPartitionedCall/functional_113_1/efficientnetb2_1/block5b_bn_1/batchnorm/sub", "shape": [1, 1, 1, 720], "dtype": "float32"}, {"name": "StatefulPartitionedCall/functional_113_1/efficientnetb2_1/block5b_se_squeeze_1/Mean/reduction_indices", "shape": [2], "dtype": "int32"}, {"name": "StatefulPartitionedCall/functional_113_1/efficientnetb2_1/block5b_se_reshape_1/strided_slice/stack", "shape": [1], "dtype": "int32"}, {"name": "StatefulPartitionedCall/functional_113_1/efficientnetb2_1/block5b_se_reshape_1/strided_slice/stack_1", "shape": [1], "dtype": "int32"}, {"name": "StatefulPartitionedCall/functional_113_1/efficientnetb2_1/block5b_se_reshape_1/strided_slice/stack_2", "shape": [1], "dtype": "int32"}, {"name": "StatefulPartitionedCall/functional_113_1/efficientnetb2_1/block5b_se_reshape_1/Reshape/shape/1", "shape": [], "dtype": "int32"}, {"name": "StatefulPartitionedCall/functional_113_1/efficientnetb2_1/block5b_se_reshape_1/Reshape/shape/2", "shape": [], "dtype": "int32"}, {"name": "StatefulPartitionedCall/functional_113_1/efficientnetb2_1/block5b_se_reshape_1/Reshape/shape/3", "shape": [], "dtype": "int32"}, {"name": "StatefulPartitionedCall/functional_113_1/efficientnetb2_1/block5b_se_reduce_1/convolution/ReadVariableOp", "shape": [1, 1, 720, 30], "dtype": "float32"}, {"name": "StatefulPartitionedCall/functional_113_1/efficientnetb2_1/block5b_se_reduce_1/Squeeze", "shape": [30], "dtype": "float32"}, {"name": "StatefulPartitionedCall/functional_113_1/efficientnetb2_1/block5b_se_expand_1/convolution/ReadVariableOp", "shape": [1, 1, 30, 720], "dtype": "float32"}, {"name": "StatefulPartitionedCall/functional_113_1/efficientnetb2_1/block5b_se_expand_1/Squeeze", "shape": [720], "dtype": "float32"}, {"name": "StatefulPartitionedCall/functional_113_1/efficientnetb2_1/block5b_project_conv_1/convolution/merged_input", "shape": [1, 1, 720, 120], "dtype": "float32"}, {"name": "StatefulPartitionedCall/functional_113_1/efficientnetb2_1/block4d_project_bn_1/batchnorm/sub", "shape": [1, 1, 1, 88], "dtype": "float32"}, {"name": "StatefulPartitionedCall/functional_113_1/efficientnetb2_1/block4d_expand_conv_1/convolution/merged_input", "shape": [1, 1, 88, 528], "dtype": "float32"}, {"name": "StatefulPartitionedCall/functional_113_1/efficientnetb2_1/block4d_expand_bn_1/batchnorm/sub", "shape": [1, 1, 1, 528], "dtype": "float32"}, {"name": "StatefulPartitionedCall/functional_113_1/efficientnetb2_1/block4d_dwconv_1/depthwise/ReadVariableOp", "shape": [3, 3, 528, 1], "dtype": "float32"}, {"name": "StatefulPartitionedCall/functional_113_1/efficientnetb2_1/block4d_bn_1/batchnorm/mul", "shape": [1, 1, 1, 528], "dtype": "float32"}, {"name": "StatefulPartitionedCall/functional_113_1/efficientnetb2_1/block4d_bn_1/batchnorm/sub", "shape": [1, 1, 1, 528], "dtype": "float32"}, {"name": "StatefulPartitionedCall/functional_113_1/efficientnetb2_1/block4d_se_squeeze_1/Mean/reduction_indices", "shape": [2], "dtype": "int32"}, {"name": "StatefulPartitionedCall/functional_113_1/efficientnetb2_1/block4d_se_reshape_1/strided_slice/stack", "shape": [1], "dtype": "int32"}, {"name": "StatefulPartitionedCall/functional_113_1/efficientnetb2_1/block4d_se_reshape_1/strided_slice/stack_1", "shape": [1], "dtype": "int32"}, {"name": "StatefulPartitionedCall/functional_113_1/efficientnetb2_1/block4d_se_reshape_1/strided_slice/stack_2", "shape": [1], "dtype": "int32"}, {"name": "StatefulPartitionedCall/functional_113_1/efficientnetb2_1/block4d_se_reshape_1/Reshape/shape/1", "shape": [], "dtype": "int32"}, {"name": "StatefulPartitionedCall/functional_113_1/efficientnetb2_1/block4d_se_reshape_1/Reshape/shape/2", "shape": [], "dtype": "int32"}, {"name": "StatefulPartitionedCall/functional_113_1/efficientnetb2_1/block4d_se_reshape_1/Reshape/shape/3", "shape": [], "dtype": "int32"}, {"name": "StatefulPartitionedCall/functional_113_1/efficientnetb2_1/block4d_se_reduce_1/convolution/ReadVariableOp", "shape": [1, 1, 528, 22], "dtype": "float32"}, {"name": "StatefulPartitionedCall/functional_113_1/efficientnetb2_1/block4d_se_reduce_1/Squeeze", "shape": [22], "dtype": "float32"}, {"name": "StatefulPartitionedCall/functional_113_1/efficientnetb2_1/block4d_se_expand_1/convolution/ReadVariableOp", "shape": [1, 1, 22, 528], "dtype": "float32"}, {"name": "StatefulPartitionedCall/functional_113_1/efficientnetb2_1/block4d_se_expand_1/Squeeze", "shape": [528], "dtype": "float32"}, {"name": "StatefulPartitionedCall/functional_113_1/efficientnetb2_1/block4d_project_conv_1/convolution/merged_input", "shape": [1, 1, 528, 88], "dtype": "float32"}, {"name": "StatefulPartitionedCall/functional_113_1/efficientnetb2_1/block4c_project_bn_1/batchnorm/sub", "shape": [1, 1, 1, 88], "dtype": "float32"}, {"name": "StatefulPartitionedCall/functional_113_1/efficientnetb2_1/block4c_expand_conv_1/convolution/merged_input", "shape": [1, 1, 88, 528], "dtype": "float32"}, {"name": "StatefulPartitionedCall/functional_113_1/efficientnetb2_1/block4c_expand_bn_1/batchnorm/sub", "shape": [1, 1, 1, 528], "dtype": "float32"}, {"name": "StatefulPartitionedCall/functional_113_1/efficientnetb2_1/block4c_dwconv_1/depthwise/ReadVariableOp", "shape": [3, 3, 528, 1], "dtype": "float32"}, {"name": "StatefulPartitionedCall/functional_113_1/efficientnetb2_1/block4c_bn_1/batchnorm/mul", "shape": [1, 1, 1, 528], "dtype": "float32"}, {"name": "StatefulPartitionedCall/functional_113_1/efficientnetb2_1/block4c_bn_1/batchnorm/sub", "shape": [1, 1, 1, 528], "dtype": "float32"}, {"name": "StatefulPartitionedCall/functional_113_1/efficientnetb2_1/block4c_se_squeeze_1/Mean/reduction_indices", "shape": [2], "dtype": "int32"}, {"name": "StatefulPartitionedCall/functional_113_1/efficientnetb2_1/block4c_se_reshape_1/strided_slice/stack", "shape": [1], "dtype": "int32"}, {"name": "StatefulPartitionedCall/functional_113_1/efficientnetb2_1/block4c_se_reshape_1/strided_slice/stack_1", "shape": [1], "dtype": "int32"}, {"name": "StatefulPartitionedCall/functional_113_1/efficientnetb2_1/block4c_se_reshape_1/strided_slice/stack_2", "shape": [1], "dtype": "int32"}, {"name": "StatefulPartitionedCall/functional_113_1/efficientnetb2_1/block4c_se_reshape_1/Reshape/shape/1", "shape": [], "dtype": "int32"}, {"name": "StatefulPartitionedCall/functional_113_1/efficientnetb2_1/block4c_se_reshape_1/Reshape/shape/2", "shape": [], "dtype": "int32"}, {"name": "StatefulPartitionedCall/functional_113_1/efficientnetb2_1/block4c_se_reshape_1/Reshape/shape/3", "shape": [], "dtype": "int32"}, {"name": "StatefulPartitionedCall/functional_113_1/efficientnetb2_1/block4c_se_reduce_1/convolution/ReadVariableOp", "shape": [1, 1, 528, 22], "dtype": "float32"}, {"name": "StatefulPartitionedCall/functional_113_1/efficientnetb2_1/block4c_se_reduce_1/Squeeze", "shape": [22], "dtype": "float32"}, {"name": "StatefulPartitionedCall/functional_113_1/efficientnetb2_1/block4c_se_expand_1/convolution/ReadVariableOp", "shape": [1, 1, 22, 528], "dtype": "float32"}, {"name": "StatefulPartitionedCall/functional_113_1/efficientnetb2_1/block4c_se_expand_1/Squeeze", "shape": [528], "dtype": "float32"}, {"name": "StatefulPartitionedCall/functional_113_1/efficientnetb2_1/block4c_project_conv_1/convolution/merged_input", "shape": [1, 1, 528, 88], "dtype": "float32"}, {"name": "StatefulPartitionedCall/functional_113_1/efficientnetb2_1/block4b_project_bn_1/batchnorm/sub", "shape": [1, 1, 1, 88], "dtype": "float32"}, {"name": "StatefulPartitionedCall/functional_113_1/efficientnetb2_1/block4b_expand_conv_1/convolution/merged_input", "shape": [1, 1, 88, 528], "dtype": "float32"}, {"name": "StatefulPartitionedCall/functional_113_1/efficientnetb2_1/block4b_expand_bn_1/batchnorm/sub", "shape": [1, 1, 1, 528], "dtype": "float32"}, {"name": "StatefulPartitionedCall/functional_113_1/efficientnetb2_1/block4b_dwconv_1/depthwise/ReadVariableOp", "shape": [3, 3, 528, 1], "dtype": "float32"}, {"name": "StatefulPartitionedCall/functional_113_1/efficientnetb2_1/block4b_bn_1/batchnorm/mul", "shape": [1, 1, 1, 528], "dtype": "float32"}, {"name": "StatefulPartitionedCall/functional_113_1/efficientnetb2_1/block4b_bn_1/batchnorm/sub", "shape": [1, 1, 1, 528], "dtype": "float32"}, {"name": "StatefulPartitionedCall/functional_113_1/efficientnetb2_1/block4b_se_squeeze_1/Mean/reduction_indices", "shape": [2], "dtype": "int32"}, {"name": "StatefulPartitionedCall/functional_113_1/efficientnetb2_1/block4b_se_reshape_1/strided_slice/stack", "shape": [1], "dtype": "int32"}, {"name": "StatefulPartitionedCall/functional_113_1/efficientnetb2_1/block4b_se_reshape_1/strided_slice/stack_1", "shape": [1], "dtype": "int32"}, {"name": "StatefulPartitionedCall/functional_113_1/efficientnetb2_1/block4b_se_reshape_1/strided_slice/stack_2", "shape": [1], "dtype": "int32"}, {"name": "StatefulPartitionedCall/functional_113_1/efficientnetb2_1/block4b_se_reshape_1/Reshape/shape/1", "shape": [], "dtype": "int32"}, {"name": "StatefulPartitionedCall/functional_113_1/efficientnetb2_1/block4b_se_reshape_1/Reshape/shape/2", "shape": [], "dtype": "int32"}, {"name": "StatefulPartitionedCall/functional_113_1/efficientnetb2_1/block4b_se_reshape_1/Reshape/shape/3", "shape": [], "dtype": "int32"}, {"name": "StatefulPartitionedCall/functional_113_1/efficientnetb2_1/block4b_se_reduce_1/convolution/ReadVariableOp", "shape": [1, 1, 528, 22], "dtype": "float32"}, {"name": "StatefulPartitionedCall/functional_113_1/efficientnetb2_1/block4b_se_reduce_1/Squeeze", "shape": [22], "dtype": "float32"}, {"name": "StatefulPartitionedCall/functional_113_1/efficientnetb2_1/block4b_se_expand_1/convolution/ReadVariableOp", "shape": [1, 1, 22, 528], "dtype": "float32"}, {"name": "StatefulPartitionedCall/functional_113_1/efficientnetb2_1/block4b_se_expand_1/Squeeze", "shape": [528], "dtype": "float32"}, {"name": "StatefulPartitionedCall/functional_113_1/efficientnetb2_1/block4b_project_conv_1/convolution/merged_input", "shape": [1, 1, 528, 88], "dtype": "float32"}, {"name": "StatefulPartitionedCall/functional_113_1/efficientnetb2_1/block3c_project_bn_1/batchnorm/sub", "shape": [1, 1, 1, 48], "dtype": "float32"}, {"name": "StatefulPartitionedCall/functional_113_1/efficientnetb2_1/block3c_expand_conv_1/convolution/merged_input", "shape": [1, 1, 48, 288], "dtype": "float32"}, {"name": "StatefulPartitionedCall/functional_113_1/efficientnetb2_1/block3c_expand_bn_1/batchnorm/sub", "shape": [1, 1, 1, 288], "dtype": "float32"}, {"name": "StatefulPartitionedCall/functional_113_1/efficientnetb2_1/block3c_dwconv_1/depthwise/ReadVariableOp", "shape": [5, 5, 288, 1], "dtype": "float32"}, {"name": "StatefulPartitionedCall/functional_113_1/efficientnetb2_1/block3c_bn_1/batchnorm/mul", "shape": [1, 1, 1, 288], "dtype": "float32"}, {"name": "StatefulPartitionedCall/functional_113_1/efficientnetb2_1/block3c_bn_1/batchnorm/sub", "shape": [1, 1, 1, 288], "dtype": "float32"}, {"name": "StatefulPartitionedCall/functional_113_1/efficientnetb2_1/block3c_se_squeeze_1/Mean/reduction_indices", "shape": [2], "dtype": "int32"}, {"name": "StatefulPartitionedCall/functional_113_1/efficientnetb2_1/block3c_se_reshape_1/strided_slice/stack", "shape": [1], "dtype": "int32"}, {"name": "StatefulPartitionedCall/functional_113_1/efficientnetb2_1/block3c_se_reshape_1/strided_slice/stack_1", "shape": [1], "dtype": "int32"}, {"name": "StatefulPartitionedCall/functional_113_1/efficientnetb2_1/block3c_se_reshape_1/strided_slice/stack_2", "shape": [1], "dtype": "int32"}, {"name": "StatefulPartitionedCall/functional_113_1/efficientnetb2_1/block3c_se_reshape_1/Reshape/shape/1", "shape": [], "dtype": "int32"}, {"name": "StatefulPartitionedCall/functional_113_1/efficientnetb2_1/block3c_se_reshape_1/Reshape/shape/2", "shape": [], "dtype": "int32"}, {"name": "StatefulPartitionedCall/functional_113_1/efficientnetb2_1/block3c_se_reshape_1/Reshape/shape/3", "shape": [], "dtype": "int32"}, {"name": "StatefulPartitionedCall/functional_113_1/efficientnetb2_1/block3c_se_reduce_1/convolution/ReadVariableOp", "shape": [1, 1, 288, 12], "dtype": "float32"}, {"name": "StatefulPartitionedCall/functional_113_1/efficientnetb2_1/block3c_se_reduce_1/Squeeze", "shape": [12], "dtype": "float32"}, {"name": "StatefulPartitionedCall/functional_113_1/efficientnetb2_1/block3c_se_expand_1/convolution/ReadVariableOp", "shape": [1, 1, 12, 288], "dtype": "float32"}, {"name": "StatefulPartitionedCall/functional_113_1/efficientnetb2_1/block3c_se_expand_1/Squeeze", "shape": [288], "dtype": "float32"}, {"name": "StatefulPartitionedCall/functional_113_1/efficientnetb2_1/block3c_project_conv_1/convolution/merged_input", "shape": [1, 1, 288, 48], "dtype": "float32"}, {"name": "StatefulPartitionedCall/functional_113_1/efficientnetb2_1/block3b_project_bn_1/batchnorm/sub", "shape": [1, 1, 1, 48], "dtype": "float32"}, {"name": "StatefulPartitionedCall/functional_113_1/efficientnetb2_1/block3b_expand_conv_1/convolution/merged_input", "shape": [1, 1, 48, 288], "dtype": "float32"}, {"name": "StatefulPartitionedCall/functional_113_1/efficientnetb2_1/block3b_expand_bn_1/batchnorm/sub", "shape": [1, 1, 1, 288], "dtype": "float32"}, {"name": "StatefulPartitionedCall/functional_113_1/efficientnetb2_1/block3b_dwconv_1/depthwise/ReadVariableOp", "shape": [5, 5, 288, 1], "dtype": "float32"}, {"name": "StatefulPartitionedCall/functional_113_1/efficientnetb2_1/block3b_bn_1/batchnorm/mul", "shape": [1, 1, 1, 288], "dtype": "float32"}, {"name": "StatefulPartitionedCall/functional_113_1/efficientnetb2_1/block3b_bn_1/batchnorm/sub", "shape": [1, 1, 1, 288], "dtype": "float32"}, {"name": "StatefulPartitionedCall/functional_113_1/efficientnetb2_1/block3b_se_squeeze_1/Mean/reduction_indices", "shape": [2], "dtype": "int32"}, {"name": "StatefulPartitionedCall/functional_113_1/efficientnetb2_1/block3b_se_reshape_1/strided_slice/stack", "shape": [1], "dtype": "int32"}, {"name": "StatefulPartitionedCall/functional_113_1/efficientnetb2_1/block3b_se_reshape_1/strided_slice/stack_1", "shape": [1], "dtype": "int32"}, {"name": "StatefulPartitionedCall/functional_113_1/efficientnetb2_1/block3b_se_reshape_1/strided_slice/stack_2", "shape": [1], "dtype": "int32"}, {"name": "StatefulPartitionedCall/functional_113_1/efficientnetb2_1/block3b_se_reshape_1/Reshape/shape/1", "shape": [], "dtype": "int32"}, {"name": "StatefulPartitionedCall/functional_113_1/efficientnetb2_1/block3b_se_reshape_1/Reshape/shape/2", "shape": [], "dtype": "int32"}, {"name": "StatefulPartitionedCall/functional_113_1/efficientnetb2_1/block3b_se_reshape_1/Reshape/shape/3", "shape": [], "dtype": "int32"}, {"name": "StatefulPartitionedCall/functional_113_1/efficientnetb2_1/block3b_se_reduce_1/convolution/ReadVariableOp", "shape": [1, 1, 288, 12], "dtype": "float32"}, {"name": "StatefulPartitionedCall/functional_113_1/efficientnetb2_1/block3b_se_reduce_1/Squeeze", "shape": [12], "dtype": "float32"}, {"name": "StatefulPartitionedCall/functional_113_1/efficientnetb2_1/block3b_se_expand_1/convolution/ReadVariableOp", "shape": [1, 1, 12, 288], "dtype": "float32"}, {"name": "StatefulPartitionedCall/functional_113_1/efficientnetb2_1/block3b_se_expand_1/Squeeze", "shape": [288], "dtype": "float32"}, {"name": "StatefulPartitionedCall/functional_113_1/efficientnetb2_1/block3b_project_conv_1/convolution/merged_input", "shape": [1, 1, 288, 48], "dtype": "float32"}, {"name": "StatefulPartitionedCall/functional_113_1/efficientnetb2_1/block2c_project_bn_1/batchnorm/sub", "shape": [1, 1, 1, 24], "dtype": "float32"}, {"name": "StatefulPartitionedCall/functional_113_1/efficientnetb2_1/block2c_expand_conv_1/convolution/merged_input", "shape": [1, 1, 24, 144], "dtype": "float32"}, {"name": "StatefulPartitionedCall/functional_113_1/efficientnetb2_1/block2c_expand_bn_1/batchnorm/sub", "shape": [1, 1, 1, 144], "dtype": "float32"}, {"name": "StatefulPartitionedCall/functional_113_1/efficientnetb2_1/block2c_dwconv_1/depthwise/ReadVariableOp", "shape": [3, 3, 144, 1], "dtype": "float32"}, {"name": "StatefulPartitionedCall/functional_113_1/efficientnetb2_1/block2c_bn_1/batchnorm/mul", "shape": [1, 1, 1, 144], "dtype": "float32"}, {"name": "StatefulPartitionedCall/functional_113_1/efficientnetb2_1/block2c_bn_1/batchnorm/sub", "shape": [1, 1, 1, 144], "dtype": "float32"}, {"name": "StatefulPartitionedCall/functional_113_1/efficientnetb2_1/block2c_se_squeeze_1/Mean/reduction_indices", "shape": [2], "dtype": "int32"}, {"name": "StatefulPartitionedCall/functional_113_1/efficientnetb2_1/block2c_se_reshape_1/strided_slice/stack", "shape": [1], "dtype": "int32"}, {"name": "StatefulPartitionedCall/functional_113_1/efficientnetb2_1/block2c_se_reshape_1/strided_slice/stack_1", "shape": [1], "dtype": "int32"}, {"name": "StatefulPartitionedCall/functional_113_1/efficientnetb2_1/block2c_se_reshape_1/strided_slice/stack_2", "shape": [1], "dtype": "int32"}, {"name": "StatefulPartitionedCall/functional_113_1/efficientnetb2_1/block2c_se_reshape_1/Reshape/shape/1", "shape": [], "dtype": "int32"}, {"name": "StatefulPartitionedCall/functional_113_1/efficientnetb2_1/block2c_se_reshape_1/Reshape/shape/2", "shape": [], "dtype": "int32"}, {"name": "StatefulPartitionedCall/functional_113_1/efficientnetb2_1/block2c_se_reshape_1/Reshape/shape/3", "shape": [], "dtype": "int32"}, {"name": "StatefulPartitionedCall/functional_113_1/efficientnetb2_1/block2c_se_reduce_1/convolution/ReadVariableOp", "shape": [1, 1, 144, 6], "dtype": "float32"}, {"name": "StatefulPartitionedCall/functional_113_1/efficientnetb2_1/block2c_se_reduce_1/Squeeze", "shape": [6], "dtype": "float32"}, {"name": "StatefulPartitionedCall/functional_113_1/efficientnetb2_1/block2c_se_expand_1/convolution/ReadVariableOp", "shape": [1, 1, 6, 144], "dtype": "float32"}, {"name": "StatefulPartitionedCall/functional_113_1/efficientnetb2_1/block2c_se_expand_1/Squeeze", "shape": [144], "dtype": "float32"}, {"name": "StatefulPartitionedCall/functional_113_1/efficientnetb2_1/block2c_project_conv_1/convolution/merged_input", "shape": [1, 1, 144, 24], "dtype": "float32"}, {"name": "StatefulPartitionedCall/functional_113_1/efficientnetb2_1/block2b_project_bn_1/batchnorm/sub", "shape": [1, 1, 1, 24], "dtype": "float32"}, {"name": "StatefulPartitionedCall/functional_113_1/efficientnetb2_1/block2b_expand_conv_1/convolution/merged_input", "shape": [1, 1, 24, 144], "dtype": "float32"}, {"name": "StatefulPartitionedCall/functional_113_1/efficientnetb2_1/block2b_expand_bn_1/batchnorm/sub", "shape": [1, 1, 1, 144], "dtype": "float32"}, {"name": "StatefulPartitionedCall/functional_113_1/efficientnetb2_1/block2b_dwconv_1/depthwise/ReadVariableOp", "shape": [3, 3, 144, 1], "dtype": "float32"}, {"name": "StatefulPartitionedCall/functional_113_1/efficientnetb2_1/block2b_bn_1/batchnorm/mul", "shape": [1, 1, 1, 144], "dtype": "float32"}, {"name": "StatefulPartitionedCall/functional_113_1/efficientnetb2_1/block2b_bn_1/batchnorm/sub", "shape": [1, 1, 1, 144], "dtype": "float32"}, {"name": "StatefulPartitionedCall/functional_113_1/efficientnetb2_1/block2b_se_squeeze_1/Mean/reduction_indices", "shape": [2], "dtype": "int32"}, {"name": "StatefulPartitionedCall/functional_113_1/efficientnetb2_1/block2b_se_reshape_1/strided_slice/stack", "shape": [1], "dtype": "int32"}, {"name": "StatefulPartitionedCall/functional_113_1/efficientnetb2_1/block2b_se_reshape_1/strided_slice/stack_1", "shape": [1], "dtype": "int32"}, {"name": "StatefulPartitionedCall/functional_113_1/efficientnetb2_1/block2b_se_reshape_1/strided_slice/stack_2", "shape": [1], "dtype": "int32"}, {"name": "StatefulPartitionedCall/functional_113_1/efficientnetb2_1/block2b_se_reshape_1/Reshape/shape/1", "shape": [], "dtype": "int32"}, {"name": "StatefulPartitionedCall/functional_113_1/efficientnetb2_1/block2b_se_reshape_1/Reshape/shape/2", "shape": [], "dtype": "int32"}, {"name": "StatefulPartitionedCall/functional_113_1/efficientnetb2_1/block2b_se_reshape_1/Reshape/shape/3", "shape": [], "dtype": "int32"}, {"name": "StatefulPartitionedCall/functional_113_1/efficientnetb2_1/block2b_se_reduce_1/convolution/ReadVariableOp", "shape": [1, 1, 144, 6], "dtype": "float32"}, {"name": "StatefulPartitionedCall/functional_113_1/efficientnetb2_1/block2b_se_reduce_1/Squeeze", "shape": [6], "dtype": "float32"}, {"name": "StatefulPartitionedCall/functional_113_1/efficientnetb2_1/block2b_se_expand_1/convolution/ReadVariableOp", "shape": [1, 1, 6, 144], "dtype": "float32"}, {"name": "StatefulPartitionedCall/functional_113_1/efficientnetb2_1/block2b_se_expand_1/Squeeze", "shape": [144], "dtype": "float32"}, {"name": "StatefulPartitionedCall/functional_113_1/efficientnetb2_1/block2b_project_conv_1/convolution/merged_input", "shape": [1, 1, 144, 24], "dtype": "float32"}, {"name": "StatefulPartitionedCall/functional_113_1/efficientnetb2_1/block1b_project_bn_1/batchnorm/sub", "shape": [1, 1, 1, 16], "dtype": "float32"}, {"name": "StatefulPartitionedCall/functional_113_1/efficientnetb2_1/block1b_dwconv_1/depthwise/ReadVariableOp", "shape": [3, 3, 16, 1], "dtype": "float32"}, {"name": "StatefulPartitionedCall/functional_113_1/efficientnetb2_1/block1b_bn_1/batchnorm/mul", "shape": [1, 1, 1, 16], "dtype": "float32"}, {"name": "StatefulPartitionedCall/functional_113_1/efficientnetb2_1/block1b_bn_1/batchnorm/sub", "shape": [1, 1, 1, 16], "dtype": "float32"}, {"name": "StatefulPartitionedCall/functional_113_1/efficientnetb2_1/block1b_se_squeeze_1/Mean/reduction_indices", "shape": [2], "dtype": "int32"}, {"name": "StatefulPartitionedCall/functional_113_1/efficientnetb2_1/block1b_se_reshape_1/strided_slice/stack", "shape": [1], "dtype": "int32"}, {"name": "StatefulPartitionedCall/functional_113_1/efficientnetb2_1/block1b_se_reshape_1/strided_slice/stack_1", "shape": [1], "dtype": "int32"}, {"name": "StatefulPartitionedCall/functional_113_1/efficientnetb2_1/block1b_se_reshape_1/strided_slice/stack_2", "shape": [1], "dtype": "int32"}, {"name": "StatefulPartitionedCall/functional_113_1/efficientnetb2_1/block1b_se_reshape_1/Reshape/shape/1", "shape": [], "dtype": "int32"}, {"name": "StatefulPartitionedCall/functional_113_1/efficientnetb2_1/block1b_se_reshape_1/Reshape/shape/2", "shape": [], "dtype": "int32"}, {"name": "StatefulPartitionedCall/functional_113_1/efficientnetb2_1/block1b_se_reshape_1/Reshape/shape/3", "shape": [], "dtype": "int32"}, {"name": "StatefulPartitionedCall/functional_113_1/efficientnetb2_1/block1b_se_reduce_1/convolution/ReadVariableOp", "shape": [1, 1, 16, 4], "dtype": "float32"}, {"name": "StatefulPartitionedCall/functional_113_1/efficientnetb2_1/block1b_se_reduce_1/Squeeze", "shape": [4], "dtype": "float32"}, {"name": "StatefulPartitionedCall/functional_113_1/efficientnetb2_1/block1b_se_expand_1/convolution/ReadVariableOp", "shape": [1, 1, 4, 16], "dtype": "float32"}, {"name": "StatefulPartitionedCall/functional_113_1/efficientnetb2_1/block1b_se_expand_1/Squeeze", "shape": [16], "dtype": "float32"}, {"name": "StatefulPartitionedCall/functional_113_1/efficientnetb2_1/block1b_project_conv_1/convolution/merged_input", "shape": [1, 1, 16, 16], "dtype": "float32"}, {"name": "StatefulPartitionedCall/functional_113_1/efficientnetb2_1/rescaling_1/Cast/x", "shape": [], "dtype": "float32"}, {"name": "StatefulPartitionedCall/functional_113_1/efficientnetb2_1/rescaling_1/add", "shape": [1, 1, 1, 3], "dtype": "float32"}, {"name": "StatefulPartitionedCall/functional_113_1/efficientnetb2_1/normalization_1/truediv", "shape": [1, 1, 1, 3], "dtype": "float32"}, {"name": "StatefulPartitionedCall/functional_113_1/efficientnetb2_1/rescaling_1_2/Cast_1/x", "shape": [], "dtype": "float32"}, {"name": "StatefulPartitionedCall/functional_113_1/efficientnetb2_1/stem_conv_pad_1/Const", "shape": [4, 2], "dtype": "int32"}, {"name": "StatefulPartitionedCall/functional_113_1/efficientnetb2_1/stem_conv_1/convolution/merged_input", "shape": [3, 3, 3, 32], "dtype": "float32"}, {"name": "StatefulPartitionedCall/functional_113_1/efficientnetb2_1/stem_bn_1/batchnorm/sub", "shape": [1, 1, 1, 32], "dtype": "float32"}, {"name": "StatefulPartitionedCall/functional_113_1/efficientnetb2_1/block1a_dwconv_1/depthwise/ReadVariableOp", "shape": [3, 3, 32, 1], "dtype": "float32"}, {"name": "StatefulPartitionedCall/functional_113_1/efficientnetb2_1/block1a_bn_1/batchnorm/mul", "shape": [1, 1, 1, 32], "dtype": "float32"}, {"name": "StatefulPartitionedCall/functional_113_1/efficientnetb2_1/block1a_bn_1/batchnorm/sub", "shape": [1, 1, 1, 32], "dtype": "float32"}, {"name": "StatefulPartitionedCall/functional_113_1/efficientnetb2_1/block1a_se_squeeze_1/Mean/reduction_indices", "shape": [2], "dtype": "int32"}, {"name": "StatefulPartitionedCall/functional_113_1/efficientnetb2_1/block1a_se_reshape_1/strided_slice/stack", "shape": [1], "dtype": "int32"}, {"name": "StatefulPartitionedCall/functional_113_1/efficientnetb2_1/block1a_se_reshape_1/strided_slice/stack_1", "shape": [1], "dtype": "int32"}, {"name": "StatefulPartitionedCall/functional_113_1/efficientnetb2_1/block1a_se_reshape_1/strided_slice/stack_2", "shape": [1], "dtype": "int32"}, {"name": "StatefulPartitionedCall/functional_113_1/efficientnetb2_1/block1a_se_reshape_1/Reshape/shape/1", "shape": [], "dtype": "int32"}, {"name": "StatefulPartitionedCall/functional_113_1/efficientnetb2_1/block1a_se_reshape_1/Reshape/shape/2", "shape": [], "dtype": "int32"}, {"name": "StatefulPartitionedCall/functional_113_1/efficientnetb2_1/block1a_se_reshape_1/Reshape/shape/3", "shape": [], "dtype": "int32"}, {"name": "StatefulPartitionedCall/functional_113_1/efficientnetb2_1/block1a_se_reduce_1/convolution/ReadVariableOp", "shape": [1, 1, 32, 8], "dtype": "float32"}, {"name": "StatefulPartitionedCall/functional_113_1/efficientnetb2_1/block1a_se_reduce_1/Squeeze", "shape": [8], "dtype": "float32"}, {"name": "StatefulPartitionedCall/functional_113_1/efficientnetb2_1/block1a_se_expand_1/convolution/ReadVariableOp", "shape": [1, 1, 8, 32], "dtype": "float32"}, {"name": "StatefulPartitionedCall/functional_113_1/efficientnetb2_1/block1a_se_expand_1/Squeeze", "shape": [32], "dtype": "float32"}, {"name": "StatefulPartitionedCall/functional_113_1/efficientnetb2_1/block1a_project_conv_1/convolution/merged_input", "shape": [1, 1, 32, 16], "dtype": "float32"}, {"name": "StatefulPartitionedCall/functional_113_1/efficientnetb2_1/block1a_project_bn_1/batchnorm/sub", "shape": [1, 1, 1, 16], "dtype": "float32"}, {"name": "StatefulPartitionedCall/functional_113_1/efficientnetb2_1/block2a_expand_conv_1/convolution/merged_input", "shape": [1, 1, 16, 96], "dtype": "float32"}, {"name": "StatefulPartitionedCall/functional_113_1/efficientnetb2_1/block2a_expand_bn_1/batchnorm/sub", "shape": [1, 1, 1, 96], "dtype": "float32"}, {"name": "StatefulPartitionedCall/functional_113_1/efficientnetb2_1/block2a_dwconv_pad_1/Const", "shape": [4, 2], "dtype": "int32"}, {"name": "StatefulPartitionedCall/functional_113_1/efficientnetb2_1/block2a_dwconv_1/depthwise/ReadVariableOp", "shape": [3, 3, 96, 1], "dtype": "float32"}, {"name": "StatefulPartitionedCall/functional_113_1/efficientnetb2_1/block2a_bn_1/batchnorm/mul", "shape": [1, 1, 1, 96], "dtype": "float32"}, {"name": "StatefulPartitionedCall/functional_113_1/efficientnetb2_1/block2a_bn_1/batchnorm/sub", "shape": [1, 1, 1, 96], "dtype": "float32"}, {"name": "StatefulPartitionedCall/functional_113_1/efficientnetb2_1/block2a_se_squeeze_1/Mean/reduction_indices", "shape": [2], "dtype": "int32"}, {"name": "StatefulPartitionedCall/functional_113_1/efficientnetb2_1/block2a_se_reshape_1/strided_slice/stack", "shape": [1], "dtype": "int32"}, {"name": "StatefulPartitionedCall/functional_113_1/efficientnetb2_1/block2a_se_reshape_1/strided_slice/stack_1", "shape": [1], "dtype": "int32"}, {"name": "StatefulPartitionedCall/functional_113_1/efficientnetb2_1/block2a_se_reshape_1/strided_slice/stack_2", "shape": [1], "dtype": "int32"}, {"name": "StatefulPartitionedCall/functional_113_1/efficientnetb2_1/block2a_se_reshape_1/Reshape/shape/1", "shape": [], "dtype": "int32"}, {"name": "StatefulPartitionedCall/functional_113_1/efficientnetb2_1/block2a_se_reshape_1/Reshape/shape/2", "shape": [], "dtype": "int32"}, {"name": "StatefulPartitionedCall/functional_113_1/efficientnetb2_1/block2a_se_reshape_1/Reshape/shape/3", "shape": [], "dtype": "int32"}, {"name": "StatefulPartitionedCall/functional_113_1/efficientnetb2_1/block2a_se_reduce_1/convolution/ReadVariableOp", "shape": [1, 1, 96, 4], "dtype": "float32"}, {"name": "StatefulPartitionedCall/functional_113_1/efficientnetb2_1/block2a_se_reduce_1/Squeeze", "shape": [4], "dtype": "float32"}, {"name": "StatefulPartitionedCall/functional_113_1/efficientnetb2_1/block2a_se_expand_1/convolution/ReadVariableOp", "shape": [1, 1, 4, 96], "dtype": "float32"}, {"name": "StatefulPartitionedCall/functional_113_1/efficientnetb2_1/block2a_se_expand_1/Squeeze", "shape": [96], "dtype": "float32"}, {"name": "StatefulPartitionedCall/functional_113_1/efficientnetb2_1/block2a_project_conv_1/convolution/merged_input", "shape": [1, 1, 96, 24], "dtype": "float32"}, {"name": "StatefulPartitionedCall/functional_113_1/efficientnetb2_1/block2a_project_bn_1/batchnorm/sub", "shape": [1, 1, 1, 24], "dtype": "float32"}, {"name": "StatefulPartitionedCall/functional_113_1/efficientnetb2_1/block3a_expand_conv_1/convolution/merged_input", "shape": [1, 1, 24, 144], "dtype": "float32"}, {"name": "StatefulPartitionedCall/functional_113_1/efficientnetb2_1/block3a_expand_bn_1/batchnorm/sub", "shape": [1, 1, 1, 144], "dtype": "float32"}, {"name": "StatefulPartitionedCall/functional_113_1/efficientnetb2_1/block3a_dwconv_pad_1/Const", "shape": [4, 2], "dtype": "int32"}, {"name": "StatefulPartitionedCall/functional_113_1/efficientnetb2_1/block3a_dwconv_1/depthwise/ReadVariableOp", "shape": [5, 5, 144, 1], "dtype": "float32"}, {"name": "StatefulPartitionedCall/functional_113_1/efficientnetb2_1/block3a_bn_1/batchnorm/mul", "shape": [1, 1, 1, 144], "dtype": "float32"}, {"name": "StatefulPartitionedCall/functional_113_1/efficientnetb2_1/block3a_bn_1/batchnorm/sub", "shape": [1, 1, 1, 144], "dtype": "float32"}, {"name": "StatefulPartitionedCall/functional_113_1/efficientnetb2_1/block3a_se_squeeze_1/Mean/reduction_indices", "shape": [2], "dtype": "int32"}, {"name": "StatefulPartitionedCall/functional_113_1/efficientnetb2_1/block3a_se_reshape_1/strided_slice/stack", "shape": [1], "dtype": "int32"}, {"name": "StatefulPartitionedCall/functional_113_1/efficientnetb2_1/block3a_se_reshape_1/strided_slice/stack_1", "shape": [1], "dtype": "int32"}, {"name": "StatefulPartitionedCall/functional_113_1/efficientnetb2_1/block3a_se_reshape_1/strided_slice/stack_2", "shape": [1], "dtype": "int32"}, {"name": "StatefulPartitionedCall/functional_113_1/efficientnetb2_1/block3a_se_reshape_1/Reshape/shape/1", "shape": [], "dtype": "int32"}, {"name": "StatefulPartitionedCall/functional_113_1/efficientnetb2_1/block3a_se_reshape_1/Reshape/shape/2", "shape": [], "dtype": "int32"}, {"name": "StatefulPartitionedCall/functional_113_1/efficientnetb2_1/block3a_se_reshape_1/Reshape/shape/3", "shape": [], "dtype": "int32"}, {"name": "StatefulPartitionedCall/functional_113_1/efficientnetb2_1/block3a_se_reduce_1/convolution/ReadVariableOp", "shape": [1, 1, 144, 6], "dtype": "float32"}, {"name": "StatefulPartitionedCall/functional_113_1/efficientnetb2_1/block3a_se_reduce_1/Squeeze", "shape": [6], "dtype": "float32"}, {"name": "StatefulPartitionedCall/functional_113_1/efficientnetb2_1/block3a_se_expand_1/convolution/ReadVariableOp", "shape": [1, 1, 6, 144], "dtype": "float32"}, {"name": "StatefulPartitionedCall/functional_113_1/efficientnetb2_1/block3a_se_expand_1/Squeeze", "shape": [144], "dtype": "float32"}, {"name": "StatefulPartitionedCall/functional_113_1/efficientnetb2_1/block3a_project_conv_1/convolution/merged_input", "shape": [1, 1, 144, 48], "dtype": "float32"}, {"name": "StatefulPartitionedCall/functional_113_1/efficientnetb2_1/block3a_project_bn_1/batchnorm/sub", "shape": [1, 1, 1, 48], "dtype": "float32"}, {"name": "StatefulPartitionedCall/functional_113_1/efficientnetb2_1/block4a_expand_conv_1/convolution/merged_input", "shape": [1, 1, 48, 288], "dtype": "float32"}, {"name": "StatefulPartitionedCall/functional_113_1/efficientnetb2_1/block4a_expand_bn_1/batchnorm/sub", "shape": [1, 1, 1, 288], "dtype": "float32"}, {"name": "StatefulPartitionedCall/functional_113_1/efficientnetb2_1/block4a_dwconv_pad_1/Const", "shape": [4, 2], "dtype": "int32"}, {"name": "StatefulPartitionedCall/functional_113_1/efficientnetb2_1/block4a_dwconv_1/depthwise/ReadVariableOp", "shape": [3, 3, 288, 1], "dtype": "float32"}, {"name": "StatefulPartitionedCall/functional_113_1/efficientnetb2_1/block4a_bn_1/batchnorm/mul", "shape": [1, 1, 1, 288], "dtype": "float32"}, {"name": "StatefulPartitionedCall/functional_113_1/efficientnetb2_1/block4a_bn_1/batchnorm/sub", "shape": [1, 1, 1, 288], "dtype": "float32"}, {"name": "StatefulPartitionedCall/functional_113_1/efficientnetb2_1/block4a_se_squeeze_1/Mean/reduction_indices", "shape": [2], "dtype": "int32"}, {"name": "StatefulPartitionedCall/functional_113_1/efficientnetb2_1/block4a_se_reshape_1/strided_slice/stack", "shape": [1], "dtype": "int32"}, {"name": "StatefulPartitionedCall/functional_113_1/efficientnetb2_1/block4a_se_reshape_1/strided_slice/stack_1", "shape": [1], "dtype": "int32"}, {"name": "StatefulPartitionedCall/functional_113_1/efficientnetb2_1/block4a_se_reshape_1/strided_slice/stack_2", "shape": [1], "dtype": "int32"}, {"name": "StatefulPartitionedCall/functional_113_1/efficientnetb2_1/block4a_se_reshape_1/Reshape/shape/1", "shape": [], "dtype": "int32"}, {"name": "StatefulPartitionedCall/functional_113_1/efficientnetb2_1/block4a_se_reshape_1/Reshape/shape/2", "shape": [], "dtype": "int32"}, {"name": "StatefulPartitionedCall/functional_113_1/efficientnetb2_1/block4a_se_reshape_1/Reshape/shape/3", "shape": [], "dtype": "int32"}, {"name": "StatefulPartitionedCall/functional_113_1/efficientnetb2_1/block4a_se_reduce_1/convolution/ReadVariableOp", "shape": [1, 1, 288, 12], "dtype": "float32"}, {"name": "StatefulPartitionedCall/functional_113_1/efficientnetb2_1/block4a_se_reduce_1/Squeeze", "shape": [12], "dtype": "float32"}, {"name": "StatefulPartitionedCall/functional_113_1/efficientnetb2_1/block4a_se_expand_1/convolution/ReadVariableOp", "shape": [1, 1, 12, 288], "dtype": "float32"}, {"name": "StatefulPartitionedCall/functional_113_1/efficientnetb2_1/block4a_se_expand_1/Squeeze", "shape": [288], "dtype": "float32"}, {"name": "StatefulPartitionedCall/functional_113_1/efficientnetb2_1/block4a_project_conv_1/convolution/merged_input", "shape": [1, 1, 288, 88], "dtype": "float32"}, {"name": "StatefulPartitionedCall/functional_113_1/efficientnetb2_1/block4a_project_bn_1/batchnorm/sub", "shape": [1, 1, 1, 88], "dtype": "float32"}, {"name": "StatefulPartitionedCall/functional_113_1/efficientnetb2_1/block5a_expand_conv_1/convolution/merged_input", "shape": [1, 1, 88, 528], "dtype": "float32"}, {"name": "StatefulPartitionedCall/functional_113_1/efficientnetb2_1/block5a_expand_bn_1/batchnorm/sub", "shape": [1, 1, 1, 528], "dtype": "float32"}, {"name": "StatefulPartitionedCall/functional_113_1/efficientnetb2_1/block5a_dwconv_1/depthwise/ReadVariableOp", "shape": [5, 5, 528, 1], "dtype": "float32"}, {"name": "StatefulPartitionedCall/functional_113_1/efficientnetb2_1/block5a_bn_1/batchnorm/mul", "shape": [1, 1, 1, 528], "dtype": "float32"}, {"name": "StatefulPartitionedCall/functional_113_1/efficientnetb2_1/block5a_bn_1/batchnorm/sub", "shape": [1, 1, 1, 528], "dtype": "float32"}, {"name": "StatefulPartitionedCall/functional_113_1/efficientnetb2_1/block5a_se_squeeze_1/Mean/reduction_indices", "shape": [2], "dtype": "int32"}, {"name": "StatefulPartitionedCall/functional_113_1/efficientnetb2_1/block5a_se_reshape_1/strided_slice/stack", "shape": [1], "dtype": "int32"}, {"name": "StatefulPartitionedCall/functional_113_1/efficientnetb2_1/block5a_se_reshape_1/strided_slice/stack_1", "shape": [1], "dtype": "int32"}, {"name": "StatefulPartitionedCall/functional_113_1/efficientnetb2_1/block5a_se_reshape_1/strided_slice/stack_2", "shape": [1], "dtype": "int32"}, {"name": "StatefulPartitionedCall/functional_113_1/efficientnetb2_1/block5a_se_reshape_1/Reshape/shape/1", "shape": [], "dtype": "int32"}, {"name": "StatefulPartitionedCall/functional_113_1/efficientnetb2_1/block5a_se_reshape_1/Reshape/shape/2", "shape": [], "dtype": "int32"}, {"name": "StatefulPartitionedCall/functional_113_1/efficientnetb2_1/block5a_se_reshape_1/Reshape/shape/3", "shape": [], "dtype": "int32"}, {"name": "StatefulPartitionedCall/functional_113_1/efficientnetb2_1/block5a_se_reduce_1/convolution/ReadVariableOp", "shape": [1, 1, 528, 22], "dtype": "float32"}, {"name": "StatefulPartitionedCall/functional_113_1/efficientnetb2_1/block5a_se_reduce_1/Squeeze", "shape": [22], "dtype": "float32"}, {"name": "StatefulPartitionedCall/functional_113_1/efficientnetb2_1/block5a_se_expand_1/convolution/ReadVariableOp", "shape": [1, 1, 22, 528], "dtype": "float32"}, {"name": "StatefulPartitionedCall/functional_113_1/efficientnetb2_1/block5a_se_expand_1/Squeeze", "shape": [528], "dtype": "float32"}, {"name": "StatefulPartitionedCall/functional_113_1/efficientnetb2_1/block5a_project_conv_1/convolution/merged_input", "shape": [1, 1, 528, 120], "dtype": "float32"}, {"name": "StatefulPartitionedCall/functional_113_1/efficientnetb2_1/block5a_project_bn_1/batchnorm/sub", "shape": [1, 1, 1, 120], "dtype": "float32"}, {"name": "StatefulPartitionedCall/functional_113_1/efficientnetb2_1/block6a_expand_conv_1/convolution/merged_input", "shape": [1, 1, 120, 720], "dtype": "float32"}, {"name": "StatefulPartitionedCall/functional_113_1/efficientnetb2_1/block6a_expand_bn_1/batchnorm/sub", "shape": [1, 1, 1, 720], "dtype": "float32"}, {"name": "StatefulPartitionedCall/functional_113_1/efficientnetb2_1/block6a_dwconv_pad_1/Const", "shape": [4, 2], "dtype": "int32"}, {"name": "StatefulPartitionedCall/functional_113_1/efficientnetb2_1/block6a_dwconv_1/depthwise/ReadVariableOp", "shape": [5, 5, 720, 1], "dtype": "float32"}, {"name": "StatefulPartitionedCall/functional_113_1/efficientnetb2_1/block6a_bn_1/batchnorm/mul", "shape": [1, 1, 1, 720], "dtype": "float32"}, {"name": "StatefulPartitionedCall/functional_113_1/efficientnetb2_1/block6a_bn_1/batchnorm/sub", "shape": [1, 1, 1, 720], "dtype": "float32"}, {"name": "StatefulPartitionedCall/functional_113_1/efficientnetb2_1/block6a_se_squeeze_1/Mean/reduction_indices", "shape": [2], "dtype": "int32"}, {"name": "StatefulPartitionedCall/functional_113_1/efficientnetb2_1/block6a_se_reshape_1/strided_slice/stack", "shape": [1], "dtype": "int32"}, {"name": "StatefulPartitionedCall/functional_113_1/efficientnetb2_1/block6a_se_reshape_1/strided_slice/stack_1", "shape": [1], "dtype": "int32"}, {"name": "StatefulPartitionedCall/functional_113_1/efficientnetb2_1/block6a_se_reshape_1/strided_slice/stack_2", "shape": [1], "dtype": "int32"}, {"name": "StatefulPartitionedCall/functional_113_1/efficientnetb2_1/block6a_se_reshape_1/Reshape/shape/1", "shape": [], "dtype": "int32"}, {"name": "StatefulPartitionedCall/functional_113_1/efficientnetb2_1/block6a_se_reshape_1/Reshape/shape/2", "shape": [], "dtype": "int32"}, {"name": "StatefulPartitionedCall/functional_113_1/efficientnetb2_1/block6a_se_reshape_1/Reshape/shape/3", "shape": [], "dtype": "int32"}, {"name": "StatefulPartitionedCall/functional_113_1/efficientnetb2_1/block6a_se_reduce_1/convolution/ReadVariableOp", "shape": [1, 1, 720, 30], "dtype": "float32"}, {"name": "StatefulPartitionedCall/functional_113_1/efficientnetb2_1/block6a_se_reduce_1/Squeeze", "shape": [30], "dtype": "float32"}, {"name": "StatefulPartitionedCall/functional_113_1/efficientnetb2_1/block6a_se_expand_1/convolution/ReadVariableOp", "shape": [1, 1, 30, 720], "dtype": "float32"}, {"name": "StatefulPartitionedCall/functional_113_1/efficientnetb2_1/block6a_se_expand_1/Squeeze", "shape": [720], "dtype": "float32"}, {"name": "StatefulPartitionedCall/functional_113_1/efficientnetb2_1/block6a_project_conv_1/convolution/merged_input", "shape": [1, 1, 720, 208], "dtype": "float32"}, {"name": "StatefulPartitionedCall/functional_113_1/efficientnetb2_1/block6a_project_bn_1/batchnorm/sub", "shape": [1, 1, 1, 208], "dtype": "float32"}, {"name": "StatefulPartitionedCall/functional_113_1/efficientnetb2_1/block7a_expand_conv_1/convolution/merged_input", "shape": [1, 1, 208, 1248], "dtype": "float32"}, {"name": "StatefulPartitionedCall/functional_113_1/efficientnetb2_1/block7a_expand_bn_1/batchnorm/sub", "shape": [1, 1, 1, 1248], "dtype": "float32"}, {"name": "StatefulPartitionedCall/functional_113_1/efficientnetb2_1/block7a_dwconv_1/depthwise/ReadVariableOp", "shape": [3, 3, 1248, 1], "dtype": "float32"}, {"name": "StatefulPartitionedCall/functional_113_1/efficientnetb2_1/block7a_bn_1/batchnorm/mul", "shape": [1, 1, 1, 1248], "dtype": "float32"}, {"name": "StatefulPartitionedCall/functional_113_1/efficientnetb2_1/block7a_bn_1/batchnorm/sub", "shape": [1, 1, 1, 1248], "dtype": "float32"}, {"name": "StatefulPartitionedCall/functional_113_1/efficientnetb2_1/block7a_se_squeeze_1/Mean/reduction_indices", "shape": [2], "dtype": "int32"}, {"name": "StatefulPartitionedCall/functional_113_1/efficientnetb2_1/block7a_se_reshape_1/strided_slice/stack", "shape": [1], "dtype": "int32"}, {"name": "StatefulPartitionedCall/functional_113_1/efficientnetb2_1/block7a_se_reshape_1/strided_slice/stack_1", "shape": [1], "dtype": "int32"}, {"name": "StatefulPartitionedCall/functional_113_1/efficientnetb2_1/block7a_se_reshape_1/strided_slice/stack_2", "shape": [1], "dtype": "int32"}, {"name": "StatefulPartitionedCall/functional_113_1/efficientnetb2_1/block7a_se_reshape_1/Reshape/shape/1", "shape": [], "dtype": "int32"}, {"name": "StatefulPartitionedCall/functional_113_1/efficientnetb2_1/block7a_se_reshape_1/Reshape/shape/2", "shape": [], "dtype": "int32"}, {"name": "StatefulPartitionedCall/functional_113_1/efficientnetb2_1/block7a_se_reshape_1/Reshape/shape/3", "shape": [], "dtype": "int32"}, {"name": "StatefulPartitionedCall/functional_113_1/efficientnetb2_1/block7a_se_reduce_1/convolution/ReadVariableOp", "shape": [1, 1, 1248, 52], "dtype": "float32"}, {"name": "StatefulPartitionedCall/functional_113_1/efficientnetb2_1/block7a_se_reduce_1/Squeeze", "shape": [52], "dtype": "float32"}, {"name": "StatefulPartitionedCall/functional_113_1/efficientnetb2_1/block7a_se_expand_1/convolution/ReadVariableOp", "shape": [1, 1, 52, 1248], "dtype": "float32"}, {"name": "StatefulPartitionedCall/functional_113_1/efficientnetb2_1/block7a_se_expand_1/Squeeze", "shape": [1248], "dtype": "float32"}, {"name": "StatefulPartitionedCall/functional_113_1/efficientnetb2_1/block7a_project_conv_1/convolution/merged_input", "shape": [1, 1, 1248, 352], "dtype": "float32"}, {"name": "StatefulPartitionedCall/functional_113_1/efficientnetb2_1/block7a_project_bn_1/batchnorm/sub", "shape": [1, 1, 1, 352], "dtype": "float32"}, {"name": "StatefulPartitionedCall/functional_113_1/efficientnetb2_1/top_conv_1/convolution/merged_input", "shape": [1, 1, 352, 1408], "dtype": "float32"}, {"name": "StatefulPartitionedCall/functional_113_1/efficientnetb2_1/top_bn_1/batchnorm/sub", "shape": [1, 1, 1, 1408], "dtype": "float32"}, {"name": "StatefulPartitionedCall/functional_113_1/global_average_pooling2d_1/Mean/reduction_indices", "shape": [2], "dtype": "int32"}, {"name": "StatefulPartitionedCall/functional_113_1/batch_normalization_1/batchnorm/mul", "shape": [1408], "dtype": "float32"}, {"name": "StatefulPartitionedCall/functional_113_1/batch_normalization_1/batchnorm/sub", "shape": [1408], "dtype": "float32"}, {"name": "StatefulPartitionedCall/functional_113_1/dense_1/Cast/ReadVariableOp", "shape": [1408, 256], "dtype": "float32"}, {"name": "StatefulPartitionedCall/functional_113_1/dense_1/BiasAdd/ReadVariableOp", "shape": [256], "dtype": "float32"}, {"name": "StatefulPartitionedCall/functional_113_1/batch_normalization_1_2/batchnorm/mul", "shape": [256], "dtype": "float32"}, {"name": "StatefulPartitionedCall/functional_113_1/batch_normalization_1_2/batchnorm/sub", "shape": [256], "dtype": "float32"}, {"name": "StatefulPartitionedCall/functional_113_1/dense_1_2/Cast/ReadVariableOp", "shape": [256, 7], "dtype": "float32"}, {"name": "StatefulPartitionedCall/functional_113_1/dense_1_2/BiasAdd/ReadVariableOp", "shape": [7], "dtype": "float32"}]}]}